classification/LSTM/model_save/LSTMmodel_tlstage64.pth (torch_old, 70274 bytes, 5 tensors)

lstm.weight_ih_l0 f4 [256, 1]
00000000: bf7d c0bb 41ed cbbb 7f66 74bb 4d1e c6bb
00000010: 2a6c e9bc 6569 893f 9b15 87bb 9304 cdbb
00000020: ddc4 a1bb c49e 21bb 326d cebb a15f 35bb
00000030: 05c9 babb 57ff 4bbb cb8c 8fbb 7135 80bb
00000040: b089 ccbb a027 50bb 9285 75be f952 3cbb
00000050: f4cc ac3e 094e 75bb 2cfe 9cbe 9653 bbbb
00000060: ff84 adbb 7c53 cfbb 6d33 39bb f451 053e
00000070: 05c8 87bb a5f0 29bb 7a50 a0bb 221f b6bb
00000080: 3a00 423f e06e 69bf 52cd b0bb a486 50bb
00000090: 338d b2bb b527 40bb 0b5d 6fbb 43e5 8ebb
000000a0: cf95 4abb fc75 2ebb 8e9c aebb 3aa8 d3bb
000000b0: ff68 8fbb 74fd c8bb f407 d2bb ca98 4fbb
000000c0: 3d0f 9abb c3c6 5ebb abda 64bb 5976 3dbb
000000d0: de01 70bb e6e4 c6bb 3e6a c8bb e1fa 3e3f
000000e0: 87a1 c8bb bbbb bfbb cfac d4bb 72bc 5ebb
000000f0: 0426 983e d9bf 48bb 7acb 44bb 7698 4ebb
00000100: c3f1 a2bb 6474 acbb a2b1 4bbb 4d43 a5bb
00000110: e100 5ebe c7ee a53e a59c 5bbb 72c2 acbb
00000120: a1bb 85bb 9b44 04bb 3748 aebb c452 16bb
00000130: 9fbd 9bbb 188e 28bb 1162 70bb dd0b 51bb
00000140: 2def abbb 72b7 2bbb 4808 f9be b9eb 1bbb
00000150: 19d0 c63e 7f75 12bb bf14 ccbe fb65 9ebb
00000160: 9c5c 92bb cccd afbb 1d53 1abb 2acb 83be
00000170: 4d90 62bb f59a 0abb f917 86bb 9353 99bb
00000180: 35d4 d4be 56e4 82be 7829 95bb 13f9 2dbb
00000190: fd59 94bb 81c8 1fbb 2b68 45bb c85c 6fbb
000001a0: 1623 29bb e53f 11bb c535 93bb fb80 b2bb
000001b0: 2303 70bb 9865 a9bb 2e87 b1bb 7427 2cbb
000001c0: 2047 81bb 174a 35bb c9c2 3ebb ab2c 1dbb
000001d0: 8b6c 48bb f199 a6bb 4baf a8bb 0678 cfbd
000001e0: 662b a8bb bd41 a2bb dd7a b3bb d094 39bb
000001f0: d23e 7bbe 254a 27bb 6536 23bb 2cc7 2abb
00000200: 59db 053b 3662 f7ba 48f0 caba 43bf 0cba
00000210: 0f7c e53f 9dc0 e8bf 3bac 3fb8 3c95 a33a
00000220: 3fe9 d539 a826 97ba 24c9 f9ba 3db5 883a
00000230: 43cd 5fba 020e b739 0bbd 183b 740d d439
00000240: a26a 5aba 6803 d839 a9db d33f d118 123a
00000250: 6813 0340 1418 263d 446d 0bbf 8d3e 0abb
00000260: 0d25 273b 0a8c d3ba dd16 6bba 4211 a4be
00000270: 0cb5 dc3a 7ed7 9fba 63ec 063b da95 1ebb
00000280: 80ca 00c0 680e 863f e96f 1abb 3932 aa3a
00000290: 35b4 e8b9 5909 923a a6d5 3437 3959 29bb
000002a0: 2130 18bb f064 0c3b fd07 1c3b 2947 a9ba
000002b0: 53c7 0c3b 4e37 b6ba b9ea ac3a 86c7 d239
000002c0: 8383 353b bc82 e7b9 94e4 e73a 0eea 70ba
000002d0: b171 1c3b f63f 76ba 0c11 b53a e3df 933f
000002e0: dafd 823a 7556 083b cdc5 d2ba 0a79 cf3a
000002f0: 890d 24bf 0b33 8e3a c59a 26ba bba1 a9b7
00000300: 49dd c1bb be63 cdbb 21c9 79bb 2582 c5bb
00000310: 1096 b43e ae4f 833f 39b7 85bb 7efb cbbb
00000320: 1fe9 9fbb 514a 21bb 5b20 d0bb 0f83 35bb
00000330: ea54 b9bb 57f4 4abb 43c3 91bb 91d8 7dbb
00000340: 5681 cbbb 3af3 4ebb 7a82 cabf 1474 3cbb
00000350: 4529 a13f 6888 73bb f8ec 27bf 68eb bcbb
00000360: 8446 afbb 4b08 d0bb 28dc 39bb f8ef 7b3e
00000370: 79d4 8abb 5a32 29bb 816f a3bb 6e6e b8bb
00000380: 6299 be3e 5a2e 39bf 379b b2bb 499d 54bb
00000390: 5dce b0bb 0bd6 42bb 16e4 6cbb fb0d 91bb
000003a0: 05c0 4dbb ea85 30bb 957b b0bb eace d4bb
000003b0: 07b7 91bb dea7 c7bb a038 d1bb b565 4ebb
000003c0: 593b 9cbb 898a 5cbb 71ac 69bb 9f6f 3ebb
000003d0: 48c3 74bb de8b c5bb 83fd c6bb 6a8a 2a3f
000003e0: 4654 c8bb bb2a c1bb a8fc d4bb 936d 63bb
000003f0: 4271 ba3e 784d 4cbb de7a 44bb 429c 4dbb
-0.005874365 -0.006223351 -0.0037292538 -0.0060460926 -0.02849396 1.0735289 -0.0041224486 -0.006256649
-0.004936798 -0.0024661282 -0.006299638 -0.0027675407 -0.005700233 -0.0031127536 -0.0043807975 -0.0039126207
-0.0062419996 -0.00317619 -0.23976734 -0.002873598 0.33750117 -0.0037430546 -0.30662668 -0.0057167513
-0.0052953954 -0.006327091 -0.0028259412 0.13019544 -0.0041437172 -0.0025930789 -0.004892406 -0.0055579105
0.75781596 -0.91184807 -0.00539557 -0.0031818533 -0.005448961 -0.0029320542 -0.0036523964 -0.004360826
-0.0030912047 -0.0026620617 -0.0053287214 -0.006459263 -0.00437653 -0.0061337296 -0.0064096395 -0.0031676763
-0.0047015236 -0.0033992983 -0.0034920375 -0.0028909652 -0.0036622207 -0.0060697673 -0.0061161807 0.7460156
-0.006122771 -0.0058512366 -0.006490327 -0.0033986834 0.29716504 -0.0030631928 -0.0030028508 -0.003152398
-0.004972668 -0.0052628983 -0.003108122 -0.0050434233 -0.21680023 0.32408735 -0.0033510115 -0.005272203
-0.004081205 -0.0020182494 -0.0053186673 -0.0022937516 -0.004752829 -0.002571946 -0.0036679546 -0.003189794
-0.005247018 -0.0026201871 -0.4863913 -0.0023791625 0.3883064 -0.0022347865 -0.39859578 -0.0048339344
-0.0044666063 -0.005365109 -0.0023548075 -0.2574094 -0.0034570873 -0.002114949 -0.004092213 -0.0046791523
-0.4156815 -0.25564831 -0.0045520626 -0.0026546165 -0.004527329 -0.0024380984 -0.0030121903 -0.0036523808
-0.0025808266 -0.0022163328 -0.004492494 -0.0054475046 -0.0036622963 -0.0051695816 -0.005417726 -0.0026268633
-0.0039452463 -0.002766257 -0.00291078 -0.0023982923 -0.0030582275 -0.005084269 -0.0051478497 -0.101303145
-0.0051321266 -0.0049516843 -0.005477293 -0.002831746 -0.24535683 -0.0025526371 -0.0024904248 -0.0026058657
0.002042493 -0.0018873874 -0.0015482986 -0.00053690764 1.7928485 -1.8183781 -4.569835e-05 0.0012480388
0.00040800308 -0.0011531906 -0.0019057137 0.001042999 -0.0008537361 0.00034914917 0.0023306038 0.00040445814
-0.00083319296 0.00041201268 1.655141 0.0005573156 2.0480595 0.040550306 -0.544636 -0.0021094412
0.0025504262 -0.0016139757 -0.00089679455 -0.32044417 0.0016838624 -0.0012194959 0.0020587675 -0.0024198205
-2.0123596 1.0473146 -0.0023565239 0.0012984938 -0.00044384753 0.0011141702 1.077858e-05 -0.0025840534
-0.0023222046 0.0021422468 0.0023808472 -0.0012914884 0.0021481111 -0.001390198 0.0013192511 0.00040202978
0.0027696795 -0.00044157158 0.0017692023 -0.00091901503 0.0023871476 -0.0009393686 0.0013814284 1.15527
0.0009993867 0.0020803486 -0.0016080678 0.0015828919 -0.64083153 0.0010848952 -0.000635546 -2.0221682e-05
-0.005916272 -0.0062679937 -0.0038114267 -0.0060274773 0.3527074 1.0258691 -0.0040806797 -0.0062250486
-0.004880085 -0.0024610946 -0.0063515133 -0.0027696525 -0.0056558745 -0.0030968392 -0.004448326 -0.003873382
-0.0062104864 -0.003157808 -1.5821068 -0.0028755711 1.259072 -0.0037160162 -0.6559596 -0.0057653673
-0.0053489823 -0.006348645 -0.0028359983 0.2460326 -0.0042367545 -0.0025817365 -0.0049876575 -0.0056283986
0.37226397 -0.7233635 -0.005450632 -0.0032442382 -0.005395694 -0.002972963 -0.0036146692 -0.0044267154
-0.003139497 -0.0026935288 -0.005385826 -0.0064943926 -0.0044468674 -0.0060930094 -0.006384924 -0.0031493728
-0.004767817 -0.003365191 -0.0035655762 -0.002905823 -0.0037347842 -0.0060286364 -0.0060727014 0.66617453
-0.006113562 -0.0058949864 -0.0064998455 -0.0034702762 0.36414534 -0.0031174105 -0.002998046 -0.0031373654

lstm.weight_hh_l0 f4 [256, 64]
00000000: 74cb a838 abc5 98b8 81a6 bab8 1b3a 37b8
00000010: 86d3 493a ac33 79b9 fa88 2738 18c8 4938
00000020: 7789 5e38 b098 90b8 09c5 9fb8 ec2a a438
00000030: 6a76 63b8 ca25 9238 6945 f438 abfc f9b7
00000040: 1be3 44b8 2682 8f38 5ca8 7b3a 5abc 9b38
00000050: c8f7 b9bb f1d1 3db7 68b4 333a 8d5e bbb8
00000060: 92a5 d238 6385 81b8 840a b1b8 47fe 8238
00000070: 88fa de38 eb3e 84b8 2690 0139 8266 dfb8
00000080: 5abd a2ba 5629 573a 1bfe d1b8 f930 bb38
00000090: d4ee 72b8 ba81 cd38 0921 09b8 6aca f3b8
000000a0: db10 b1b8 a58b a738 19d8 d438 1d35 75b8
000000b0: 6aea f538 8830 60b8 fe6e 4838 44af 8f38
000000c0: ebbc f438 10f5 41b7 f128 b138 5a41 bbb8
000000d0: 1a64 c338 8129 52b8 0cb8 6138 b989 a438
000000e0: bc3d 3138 2030 ae38 bc47 48b8 445f af38
000000f0: fa65 beb7 9d7f c238 c557 98b8 8be3 93b8
00000100: 3d1c 9b38 fb08 85b8 e471 b2b8 3a8d feb7
00000110: 0cf7 3d3a 364f 97b9 c584 3438 66e8 1038
00000120: 5f77 5938 6548 8ab8 41d5 89b8 2fa2 9b38
00000130: 446b 36b8 0e8f 8938 0f08 f038 f406 13b8
00000140: 25ec 0ab8 09d9 8138 ffcf 783a 8db3 9638
00000150: 8884 c3bb dd21 63b7 9066 333a cd0d b0b8
00000160: 02eb ca38 5862 59b8 f303 a6b8 68d2 3438
00000170: 8859 d738 2cd3 81b8 b514 fe38 cb9f d5b8
00000180: 945d a8ba 6a5c 5b3a 36ee c9b8 5d4f b138
00000190: e6ec 54b8 8082 c138 9aac 95b7 d97f efb8
000001a0: 9857 a9b8 bb43 9e38 4a06 cd38 cec5 3fb8
000001b0: b28d f138 b7ef 29b8 7a69 0f38 76ef 8138
000001c0: 1a43 f038 eb0d 02b6 1b3e a838 45bc aeb8
000001d0: c4a1 bb38 d058 1ab8 ce14 2b38 8ef2 d538
000001e0: f396 f537 cbf9 a038 c184 10b8 8b51 a638
000001f0: 9d25 86b7 c810 b838 d1c3 96b8 8d5e 8bb8
00000200: ed98 b438 3570 b4b8 ddcd 00b9 82ff d1b4
00000210: 4948 d4b9 3c16 8939 c835 8cb6 aa65 4cb6
00000220: cde8 19b7 2289 2eb8 8489 beb8 96d1 2438
00000230: 099c 6b37 07fb 1336 2b0e ec38 ea3e f635
00000240: 1251 9c36 cac8 e3b3 0348 a8b7 9955 f337
00000250: 1809 78bb ebe0 2c38 e043 c139 20a9 c1b8
00000260: f422 cf38 4259 8fb8 3cf0 39b8 34df 9b39
00000270: 7cc9 0239 813b d9b7 91e6 fd38 ff6e deb8
00000280: 63d4 deb9 a693 4039 a599 cfb8 3097 e638
00000290: 8b1b 2b37 24b2 bf38 f978 b936 8202 edb8
000002a0: 5870 e8b8 937c ce38 db00 d238 7916 98b8
000002b0: 4a7e ee38 9876 5737 446d 2237 902f 96b5
000002c0: 34c2 e938 0604 0b37 3f79 fb38 4368 63b8
000002d0: 416a ff38 a0c5 5c37 3e25 6bb7 e2aa 2dba
000002e0: b971 8a37 2316 b938 de1f 63b8 5b40 f738
000002f0: a6e6 c838 3c68 d838 cea0 92b7 bf35 24b6
00000300: b6ed 8c38 e28d 84b8 3b19 19b8 6e5d 3a37
00000310: 7cc1 a439 9d6e cab9 fad7 5f36 5d5f 17b7
00000320: f4f1 36b7 bba4 6eb7 55c0 88b8 861c 6b37
00000330: 19b9 9537 de7e f8b5 fa24 0738 7cb0 13b7
00000340: 8bd5 4437 067a 7bb6 8e99 063a f613 2e37
00000350: 98f6 b1bb ddae d1b6 d255 cd39 2a84 90b8
00000360: d68c 8638 f178 49b8 a6d2 82b7 9777 6bb8
00000370: ab49 b037 c71c 12b7 b31a e737 839a 83b8
00000380: 082a 59ba c651 fc39 8ee0 88b8 7439 1538
00000390: 1bfe 9537 1aa7 c537 7622 4637 3977 05b8
000003a0: f125 08b8 af46 2138 e80f 8638 3b4a 36b8
000003b0: d7e0 fb37 f0ef 4037 d575 f3b5 fe44 8cb6
000003c0: a72b 3238 6f32 8037 a31d 2a38 fff7 8fb7
000003d0: c40b fe37 646b 8d37 5bf0 66b7 b170 3539
000003e0: f4f1 23b6 68f3 8e38 91a9 b7b7 8ade 2a38
000003f0: af00 a4b6 df8d fe37 bf2e c7b6 a460 e135
8.04876e-05 -7.284743e-05 -8.900185e-05 -4.3684715e-05 0.0007699061 -0.0002376574 3.9943472e-05 4.8108486e-05
5.305695e-05 -6.894895e-05 -7.6184115e-05 7.828124e-05 -5.42313e-05 6.968861e-05 0.00011647755 -2.980077e-05
-4.694155e-05 6.8430134e-05 0.00095999776 7.426059e-05 -0.00567529 -1.1314159e-05 0.0006855191 -8.934466e-05
0.0001004442 -6.1760446e-05 -8.4419764e-05 6.246246e-05 0.0001063245 -6.30597e-05 0.00012356098 -0.00010652562
-0.001241605 0.00082077587 -0.000100132274 8.925977e-05 -5.7919722e-05 9.799325e-05 -3.269411e-05 -0.000116248455
-8.443157e-05 7.989191e-05 0.00010149199 -5.8462017e-05 0.000117261734 -5.345096e-05 4.7787085e-05 6.851417e-05
0.000116700154 -1.15607545e-05 8.4476436e-05 -8.9290275e-05 9.31697e-05 -5.0106555e-05 5.3815587e-05 7.845782e-05
4.2257583e-05 8.3059305e-05 -4.7750524e-05 8.362395e-05 -2.2697252e-05 9.274411e-05 -7.264273e-05 -7.0518894e-05
7.396236e-05 -6.343607e-05 -8.508915e-05 -3.0344923e-05 0.00072465907 -0.0002885998 4.3038995e-05 3.4548713e-05
5.1848005e-05 -6.593837e-05 -6.572391e-05 7.421185e-05 -4.349208e-05 6.559315e-05 0.00011445593 -3.5054007e-05
-3.312169e-05 6.191625e-05 0.0009491443 7.186001e-05 -0.0059667267 -1.3538139e-05 0.0006843591 -8.3949046e-05
9.675884e-05 -5.182842e-05 -7.9162324e-05 4.31113e-05 0.000102686754 -6.190533e-05 0.00012115521 -0.00010186395
-0.0012845271 0.0008367958 -9.628797e-05 8.4548e-05 -5.0765368e-05 9.227265e-05 -1.7842558e-05 -0.000114202216
-8.0748636e-05 7.546643e-05 9.776333e-05 -4.572217e-05 0.00011518168 -4.051599e-05 3.419209e-05 6.1958024e-05
0.000114565904 -1.937961e-06 8.022432e-05 -8.3320345e-05 8.946986e-05 -3.6799174e-05 4.0788953e-05 0.00010201811
2.9276567e-05 7.675922e-05 -3.4455912e-05 7.9306854e-05 -1.599156e-05 8.7769295e-05 -7.189031e-05 -6.645648e-05
8.6115535e-05 -8.603969e-05 -0.00012283721 -3.911519e-07 -0.00040489648 0.00026147242 -4.178586e-06 -3.0457545e-06
-9.173714e-06 -4.1612548e-05 -9.08552e-05 3.929584e-05 1.4043421e-05 2.2050824e-06 0.00011255996 1.8346739e-06
4.6586e-06 -1.06070345e-07 -2.0060694e-05 2.9007717e-05 -0.0037847217 4.1217467e-05 0.000368624 -9.234459e-05
9.87704e-05 -6.835397e-05 -4.4331173e-05 0.00029730203 0.00012472825 -2.5896124e-05 0.000121069264 -0.000106064595
-0.0004250138 0.0001836555 -9.899148e-05 0.000109954155 1.0198807e-05 9.140771e-05 5.5275127e-06 -0.00011301508
-0.00011083548 9.846049e-05 0.0001001374 -7.252111e-05 0.000113722475 1.2842611e-05 9.681393e-06 -1.1189713e-06
0.00011146479 8.285982e-06 0.000119911965 -5.421812e-05 0.00012179139 1.3159035e-05 -1.4015763e-05 -0.000662489
1.6503838e-05 8.825611e-05 -5.4150696e-05 0.00011789865 9.579705e-05 0.00010319098 -1.7479437e-05 -2.4469189e-06
6.719997e-05 -6.320678e-05 -3.650154e-05 1.1108217e-05 0.00031424675 -0.00038610856 3.3355304e-06 -9.022505e-06
-1.0904379e-05 -1.422426e-05 -6.52081e-05 1.4013733e-05 1.7848377e-05 -1.8514363e-06 3.2220945e-05 -8.802974e-06
1.173223e-05 -3.7472942e-06 0.0005134576 1.0375856e-05 -0.0054310076 -6.249042e-06 0.00039164588 -6.8910726e-05
6.415851e-05 -4.803477e-05 -1.5595298e-05 -5.6139743e-05 2.101514e-05 -8.708978e-06 2.7549779e-05 -6.275347e-05
-0.0008284156 0.00048126112 -6.526812e-05 3.5577876e-05 1.7880511e-05 2.3562043e-05 1.1809743e-05 -3.1820706e-05
-3.2460262e-05 3.845122e-05 6.392581e-05 -4.3461314e-05 3.002623e-05 1.1499957e-05 -1.8139204e-06 -4.180357e-06
4.247916e-05 1.5282274e-05 4.055876e-05 -1.716241e-05 3.0284638e-05 1.6858517e-05 -1.376503e-05 0.00017303486
-2.4429728e-06 6.8164256e-05 -2.189426e-05 4.0738414e-05 -4.8876605e-06 3.0345223e-05 -5.936104e-06 1.6791932e-06

lstm.bias_ih_l0 f4 [256]
00000000: 2e25 f4bb b5ea 00bc 9220 95bb df35 f5bb
00000010: 3ef5 17bd 4e96 3f3c 23ca a2bb 1dca fbbb
00000020: 1c37 c1bb 9f12 39bb 79a3 02bc 7803 4dbb
00000030: 1776 e3bb 5efe 66bb 0476 b6bb 5d6b 99bb
00000040: 2135 fbbb 3e5d 6cbb cf8b 2f3f 5517 54bb
00000050: 44b6 4a3f a60d 95bb cf14 b6bd aa31 eebb
00000060: 0098 ddbb 1540 02bc 27e8 4fbb 37c4 e1be
00000070: e975 a8bb 6a26 43bb 439e cabb 3200 e8bb
00000080: a95f 733f 88c0 2a3c 4a82 e1bb 1440 75bb
00000090: 403d d7bb e1b8 5dbb af7e 89bb e7b5 b5bb
000000a0: 6310 78bb 8a01 4fbb c3d7 debb 9940 05bc
000000b0: fce6 b5bb 147c f5bb 9e6e 01bc 5f8f 6abb
000000c0: e283 c4bb 1f39 83bb 095b 8abb 0553 56bb
000000d0: cdd5 93bb 041c f3bb 9b4b f4bb 93cc d93e
000000e0: 6d55 f9bb b554 f3bb f0fd 04bc 5314 86bb
000000f0: 2c1c b6be 15ea 69bb 1070 5dbb 9d29 69bb
00000100: 2ddc c9bb 4d7c d5bb fa59 73bb bea8 cbbb
00000110: 2da9 28bd 3d19 03bf 844c 86bb 6104 d4bb
00000120: 77bf a2bb cfce 1bbb fdef d7bb 64b5 2fbb
00000130: f3dc bebb 9f95 46bb 06aa 93bb fba6 7ebb
00000140: deff d2bb 2cc3 4abb 4e3e 76be 8a0a 36bb
00000150: 5656 fa3e b8fc 19bb aef1 323e 8b43 c4bb
00000160: 829e b5bb 6524 d9bb d33b 33bb 5b2f b1bd
00000170: 2da7 88bb 1b08 24bb 2c4c a4bb 3ae6 bdbb
00000180: 5a89 9fbe c16a 08be bce4 b8bb 88dc 4bbb
00000190: 2f19 b5bb b24f 3abb dc53 6bbb 0131 93bb
000001a0: d6a2 4abb 30b0 2bbb 1c7b b6bb b2d1 dcbb
000001b0: dd17 93bb 2b82 cfbb 6200 dabb 20ae 4abb
000001c0: afb5 9fbb 59ff 5abb 53fe 62bb 2a28 37bb
000001d0: 7e46 71bb 6148 ccbb 2f82 cebb b3ba 35be
000001e0: 1678 cfbb 0306 c9bb bcb9 ddbb 4318 5cbb
000001f0: 331d 8dbe b03c 43bb d8fe 3ebb 7cbe 48bb
00000200: 0b69 113b 72aa 0fbb d9b1 e0ba f683 beb9
00000210: b752 a8be 8a2d 5c3f a9b2 dfba 96e1 33ba
00000220: f2e2 07ba b9e4 b8ba 4aa4 04ba 1828 b83a
00000230: 46ea ea3a 0746 2a39 709b e33a 2fed 58b8
00000240: 528b 08bb d95b cdb9 cfee 573e 0352 f738
00000250: f22a a13c 9d7e d2bc 777b 4b3e e9d1 edba
00000260: 5091 e73a e5fb 41bb 7e7f e1ba 6f71 16be
00000270: 4f49 813b b8b7 6dba be2d 2e3b 6e41 17bb
00000280: e221 053f 200e 133e f90a f5ba 0c5d 123b
00000290: 131b 49ba c61a 123b f251 4bba 93c0 45bb
000002a0: 3532 c5ba 8d0e cd3a 51d6 a53a e2af 28ba
000002b0: 9adf a13a 88b6 e8b7 2f28 3f3a c054 d8b9
000002c0: fd74 0b3b 65d0 b23a 75d8 033b 915f c239
000002d0: b9ec a53a 260e 77ba acf5 01bb 6a07 3cbe
000002e0: 7a10 dc38 e126 033b 461e cbba 3d4f 2e3a
000002f0: 14db d7bc cbbf f23a d723 09ba 0a82 8fb9
00000300: f633 f4bb b4f3 00bc 5d28 95bb a74c f5bb
00000310: 2ef9 493f 858b 473d 91d9 a2bb 70df fbbb
00000320: fc47 c1bb 2020 39bb dfac 02bc c711 4dbb
00000330: 478a e3bb 0110 67bb c87d b6bb 5279 99bb
00000340: 0d4b fbbb a16f 6cbb c613 373e 9b26 54bb
00000350: 3d6b 3d3e f106 95bb 93ff 81be 3f3f eebb
00000360: 40a3 ddbb 4049 02bc 0bf6 4fbb edee f1be
00000370: 6f7e a8bb a635 43bb fca8 cabb 7e0d e8bb
00000380: 1f2d 6d3f a1b1 583d 028e e1bb e34d 75bb
00000390: 5050 d7bb b5c6 5dbb aa89 89bb 99bd b5bb
000003a0: c31a 78bb e80b 4fbb 41e3 debb 4b4b 05bc
000003b0: c8ee b5bb 8c90 f5bb 3f79 01bc c4a0 6abb
000003c0: ca8c c4bb ae44 83bb 6d62 8abb fa61 56bb
000003d0: e3dc 93bb 9431 f3bb 2360 f4bb c534 813e
000003e0: ad6b f9bb 3263 f3bb e508 05bc 811b 86bb
000003f0: 4920 e1be a8f7 69bb 3680 5dbb 463b 69bb
-0.007450721 -0.0078684585 -0.004551002 -0.0074832286 -0.037099116 0.01169355 -0.004967944 -0.007684006
-0.005896462 -0.0028239859 -0.007973545 -0.0031282585 -0.0069415676 -0.003524683 -0.005568268 -0.004681988
-0.0076662456 -0.003606632 0.68572706 -0.003236254 0.79184365 -0.004548746 -0.08890688 -0.007269104
-0.0067625046 -0.007949849 -0.0031724067 -0.44095013 -0.005141009 -0.0029777535 -0.006183417 -0.0070801014
0.9506784 0.01042188 -0.0068819867 -0.0037422227 -0.006568581 -0.003383212 -0.00419601 -0.005545366
-0.0037851564 -0.003158661 -0.006800623 -0.008133077 -0.005551217 -0.007491598 -0.007899908 -0.0035791022
-0.005997167 -0.004004612 -0.004222278 -0.0032703292 -0.004511571 -0.007419111 -0.007455302 0.4253889
-0.0076090605 -0.0074258693 -0.008117184 -0.0040917783 -0.35568368 -0.0035692502 -0.0033788718 -0.0035577782
-0.00616028 -0.006515062 -0.0037132488 -0.006215184 -0.041176964 -0.51210386 -0.004098477 -0.0064702486
-0.004966672 -0.002377439 -0.006589888 -0.0026810998 -0.005824679 -0.0030301583 -0.0045063524 -0.0038856852
-0.006439193 -0.0030939085 -0.24047205 -0.0027777278 0.48893994 -0.002349658 0.17475006 -0.005989497
-0.0055425772 -0.006626653 -0.002734889 -0.086516105 -0.0041703195 -0.0025029245 -0.005013963 -0.0057952674
-0.31159478 -0.13321973 -0.0056425016 -0.0031106789 -0.0055266838 -0.002842885 -0.0035908138 -0.0044919257
-0.0030919812 -0.0026197545 -0.005568875 -0.006738865 -0.0044889287 -0.006332656 -0.0066528777 -0.003092654
-0.0048739533 -0.003341636 -0.0034636452 -0.0027947524 -0.0036815698 -0.006234214 -0.00630214 -0.17747001
-0.006331454 -0.00613475 -0.006766526 -0.0033583797 -0.2756134 -0.0029790811 -0.0029143598 -0.0030631116
0.0022187855 -0.0021921662 -0.0017142846 -0.00036337943 -0.32875606 0.8600699 -0.0017066795 -0.0006861923
-0.0005183659 -0.0014106251 -0.00050598814 0.0014050035 0.0017922602 0.0001623855 0.001736505 -5.1719308e-05
-0.0020834995 -0.0003916908 0.21087192 0.00011793154 0.019673798 -0.02569514 0.19871317 -0.0018144223
0.0017667208 -0.0029599604 -0.0017204133 -0.14691709 0.0039455066 -0.0009068209 0.0026577557 -0.002307977
0.52004826 0.14360857 -0.0018695287 0.0022333292 -0.0007671576 0.002229379 -0.0007756046 -0.0030174598
-0.001504487 0.0015644595 0.0012652372 -0.00064349 0.0012349964 -2.7741553e-05 0.00072920596 -0.00041261874
0.0021279447 0.0013642429 0.0020118032 0.00037073766 0.001265905 -0.00094244105 -0.001983027 -0.18362203
0.000104934865 0.0020012187 -0.0015496693 0.00066493807 -0.026349582 0.0018520294 -0.0005231476 -0.00027371972
-0.0074524833 -0.007870603 -0.004551931 -0.0074859443 0.78895843 0.04871704 -0.0049697836 -0.007686548
-0.005898474 -0.0028247908 -0.007975786 -0.0031291114 -0.006943974 -0.0035257342 -0.0055691935 -0.004683652
-0.007668859 -0.0036077278 0.17878637 -0.0032371643 0.1849794 -0.0045479466 -0.253903 -0.007270723
-0.0067638457 -0.0079520345 -0.0031732346 -0.47252598 -0.005142025 -0.0029786616 -0.0061846953 -0.0070816865
0.92646974 0.052903775 -0.0068833837 -0.0037430457 -0.0065708533 -0.0033840362 -0.004197319 -0.0055462834
-0.0037857748 -0.003159279 -0.006801993 -0.008135627 -0.0055521466 -0.007494038 -0.0079024425 -0.003580139
-0.0059982287 -0.00400599 -0.004223159 -0.0032712207 -0.0045124157 -0.0074216817 -0.0074577495 0.25235572
-0.007611713 -0.0074275965 -0.008119796 -0.004092634 -0.43969944 -0.0035700593 -0.0033798344 -0.0035588308

lstm.bias_hh_l0 f4 [256]
00000000: 2e25 f4bb b5ea 00bc 9220 95bb df35 f5bb
00000010: 6c9e b93c efe2 7f3a 23ca a2bb 1dca fbbb
00000020: 1c37 c1bb 9f12 39bb 79a3 02bc 7803 4dbb
00000030: 1776 e3bb 5efe 66bb 0476 b6bb 5d6b 99bb
00000040: 2135 fbbb 3e5d 6cbb 0d57 2e3f 5517 54bb
00000050: 34a2 4b3f a60d 95bb 6aa8 90bc aa31 eebb
00000060: 0098 ddbb 1540 02bc 27e8 4fbb e8c7 e2be
00000070: e975 a8bb 6a26 43bb 439e cabb 3200 e8bb
00000080: 8ba9 7f3f 9d28 cebb 4a82 e1bb 1440 75bb
00000090: 403d d7bb e1b8 5dbb af7e 89bb e7b5 b5bb
000000a0: 6310 78bb 8a01 4fbb c3d7 debb 9940 05bc
000000b0: fce6 b5bb 147c f5bb 9e6e 01bc 5f8f 6abb
000000c0: e283 c4bb 1f39 83bb 095b 8abb 0553 56bb
000000d0: cdd5 93bb 041c f3bb 9b4b f4bb 713a da3e
000000e0: 6d55 f9bb b554 f3bb f0fd 04bc 5314 86bb
000000f0: 03ad cabe 15ea 69bb 1070 5dbb 9d29 69bb
00000100: 2ddc c9bb 4d7c d5bb fa59 73bb bea8 cbbb
00000110: cdc4 bbbd 45c1 02bf 844c 86bb 6104 d4bb
00000120: 77bf a2bb cfce 1bbb fdef d7bb 64b5 2fbb
00000130: f3dc bebb 9f95 46bb 06aa 93bb fba6 7ebb
00000140: deff d2bb 2cc3 4abb fb92 75be 8a0a 36bb
00000150: eccb 003f b8fc 19bb b3e7 3e3e 8b43 c4bb
00000160: 829e b5bb 6524 d9bb d33b 33bb 26a0 b6bd
00000170: 2da7 88bb 1b08 24bb 2c4c a4bb 3ae6 bdbb
00000180: da74 a3be ce34 08be bce4 b8bb 88dc 4bbb
00000190: 2f19 b5bb b24f 3abb dc53 6bbb 0131 93bb
000001a0: d6a2 4abb 30b0 2bbb 1c7b b6bb b2d1 dcbb
000001b0: dd17 93bb 2b82 cfbb 6200 dabb 20ae 4abb
000001c0: afb5 9fbb 59ff 5abb 53fe 62bb 2a28 37bb
000001d0: 7e46 71bb 6148 ccbb 2f82 cebb c41a 43be
000001e0: 1678 cfbb 0306 c9bb bcb9 ddbb 4318 5cbb
000001f0: fbc0 90be b03c 43bb d8fe 3ebb 7cbe 48bb
00000200: 6bfd 853a 2ded 56ba d094 27bb cb5a 69ba
00000210: cbb7 c5be d848 393f cf4f 963a d302 fc3a
00000220: 7fd4 3339 aeea 7cba bd64 25bb e39a 973a
00000230: 469c 17bb 9d24 003b 70dc 183b 1339 1f3a
00000240: 17ce 603a e563 1c3b 2ffc 883e fdda 1e3b
00000250: 3327 65bd e9bc 1bbb 80a9 293e 228e d7ba
00000260: e3d3 ef3a 596a 4f39 0b91 81ba c1ea 59bd
00000270: a024 ce39 f453 9dba 8f30 c83a 259a adba
00000280: f1c1 073f 5c15 143e d524 e6ba 347c d63a
00000290: 28c4 1d3a 38f5 a73a 57b7 4fba feae 83ba
000002a0: b88f 16bb ef26 ee3a d612 1e3b d04a 04bb
000002b0: 49ae 3d3b ea53 75ba 0a38 553a 57f5 183b
000002c0: f25b e33a afd2 1fbb a0ff 053b 50f9 57bb
000002d0: add8 323b 4189 e638 0417 3a3b 7516 c4be
000002e0: 6da8 b93a 4dce aa3a 6b33 08ba 59d5 5e3b
000002f0: ca18 a5bc 7c27 fc3a 0f6f f2ba 35a0 00bb
00000300: f633 f4bb b4f3 00bc 5d28 95bb a74c f5bb
00000310: f043 4a3f 6030 6b3d 91d9 a2bb 70df fbbb
00000320: fc47 c1bb 2020 39bb dfac 02bc c711 4dbb
00000330: 478a e3bb 0110 67bb c87d b6bb 5279 99bb
00000340: 0d4b fbbb a16f 6cbb 9566 563e 9b26 54bb
00000350: a083 823e f106 95bb 53ab 83be 3f3f eebb
00000360: 40a3 ddbb 4049 02bc 0bf6 4fbb 271b f2be
00000370: 6f7e a8bb a635 43bb fca8 cabb 7e0d e8bb
00000380: de80 6b3f 641e 2b3d 028e e1bb e34d 75bb
00000390: 5050 d7bb b5c6 5dbb aa89 89bb 99bd b5bb
000003a0: c31a 78bb e80b 4fbb 41e3 debb 4b4b 05bc
000003b0: c8ee b5bb 8c90 f5bb 3f79 01bc c4a0 6abb
000003c0: ca8c c4bb ae44 83bb 6d62 8abb fa61 56bb
000003d0: e3dc 93bb 9431 f3bb 2360 f4bb fd0d 463e
000003e0: ad6b f9bb 3263 f3bb e508 05bc 811b 86bb
000003f0: 7fa4 e4be a8f7 69bb 3680 5dbb 463b 69bb
-0.007450721 -0.0078684585 -0.004551002 -0.0074832286 0.02265855 0.0009761294 -0.004967944 -0.007684006
-0.005896462 -0.0028239859 -0.007973545 -0.0031282585 -0.0069415676 -0.003524683 -0.005568268 -0.004681988
-0.0076662456 -0.003606632 0.6810158 -0.003236254 0.7954438 -0.004548746 -0.017658431 -0.007269104
-0.0067625046 -0.007949849 -0.0031724067 -0.4429314 -0.005141009 -0.0029777535 -0.006183417 -0.0070801014
0.9986808 -0.0062914626 -0.0068819867 -0.0037422227 -0.006568581 -0.003383212 -0.00419601 -0.005545366
-0.0037851564 -0.003158661 -0.006800623 -0.008133077 -0.005551217 -0.007491598 -0.007899908 -0.0035791022
-0.005997167 -0.004004612 -0.004222278 -0.0032703292 -0.004511571 -0.007419111 -0.007455302 0.42622712
-0.0076090605 -0.0074258693 -0.008117184 -0.0040917783 -0.39585122 -0.0035692502 -0.0033788718 -0.0035577782
-0.00616028 -0.006515062 -0.0037132488 -0.006215184 -0.09168396 -0.51076156 -0.004098477 -0.0064702486
-0.004966672 -0.002377439 -0.006589888 -0.0026810998 -0.005824679 -0.0030301583 -0.0045063524 -0.0038856852
-0.006439193 -0.0030939085 -0.2398185 -0.0027777278 0.5031116 -0.002349658 0.18643074 -0.005989497
-0.0055425772 -0.006626653 -0.002734889 -0.08917265 -0.0041703195 -0.0025029245 -0.005013963 -0.0057952674
-0.31925088 -0.13301393 -0.0056425016 -0.0031106789 -0.0055266838 -0.002842885 -0.0035908138 -0.0044919257
-0.0030919812 -0.0026197545 -0.005568875 -0.006738865 -0.0044889287 -0.006332656 -0.0066528777 -0.003092654
-0.0048739533 -0.003341636 -0.0034636452 -0.0027947524 -0.0036815698 -0.006234214 -0.00630214 -0.19053179
-0.006331454 -0.00613475 -0.006766526 -0.0033583797 -0.28272232 -0.0029790811 -0.0029143598 -0.0030631116
0.0010222619 -0.0008198794 -0.0025570877 -0.0008901774 -0.38616785 0.72376776 0.0011467877 0.0019226916
0.00017149931 -0.0009648007 -0.0025237047 0.0011566546 -0.0023133918 0.0019553073 0.002332475 0.00060738734
0.00085756317 0.0023863253 0.267549 0.0024239414 -0.055945586 -0.0023763722 0.16568565 -0.0016445557
0.00182974 0.00019780676 -0.0009885145 -0.053202394 0.0003931867 -0.0012003169 0.0015273261 -0.0013244791
0.53030306 0.14461273 -0.0017558584 0.001636392 0.0006018304 0.001281417 -0.0007923743 -0.0010046659
-0.0022973847 0.0018169562 0.0024120114 -0.0020186193 0.0028942993 -0.00093585125 0.00081336556 0.0023339593
0.0017346127 -0.0024387052 0.0020446554 -0.0032954998 0.0027289793 0.0001099282 0.0028395066 -0.38298383
0.0014164575 0.0013031453 -0.000519565 0.0034001677 -0.020153422 0.0019237841 -0.0018496233 -0.001962674
-0.0074524833 -0.007870603 -0.004551931 -0.0074859443 0.79009914 0.05741918 -0.0049697836 -0.007686548
-0.005898474 -0.0028247908 -0.007975786 -0.0031291114 -0.006943974 -0.0035257342 -0.0055691935 -0.004683652
-0.007668859 -0.0036077278 0.2093757 -0.0032371643 0.25491047 -0.0045479466 -0.25716648 -0.007270723
-0.0067638457 -0.0079520345 -0.0031732346 -0.4728634 -0.005142025 -0.0029786616 -0.0061846953 -0.0070816865
0.9199351 0.04177703 -0.0068833837 -0.0037430457 -0.0065708533 -0.0033840362 -0.004197319 -0.0055462834
-0.0037857748 -0.003159279 -0.006801993 -0.008135627 -0.0055521466 -0.007494038 -0.0079024425 -0.003580139
-0.0059982287 -0.00400599 -0.004223159 -0.0032712207 -0.0045124157 -0.0074216817 -0.0074577495 0.19341274
-0.007611713 -0.0074275965 -0.008119796 -0.004092634 -0.4465675 -0.0035700593 -0.0033798344 -0.0035588308

linear.weight f4 [3, 64]
00000000: e15d 07bb f369 083b c02e e03a 4450 c73a
00000010: 1986 323f b647 8d3e 17c0 75ba 043a c5ba
00000020: 9d13 7dba 3c0c 0d39 3994 063b d3ea b3b9
00000030: 7ee6 a33a d985 09b7 ffa3 05bb 04d6 5e3a
00000040: fb27 c63a b744 0638 c5a7 e2bc b6d9 a9b9
00000050: b1d7 623f d369 9fba f779 f63e c5f4 093b
00000060: 154e 08bb c603 ff3a dd7f 053a 9461 0e3e
00000070: 40fa feba 9994 7cb7 4945 0cbb 54cc 0e3b
00000080: 6e66 8cbe bdb9 f03d 15e9 0a3b 6c06 b3ba
00000090: 37de 923a 4345 83ba 73f2 aeb9 b058 043b
000000a0: 9362 c23a 74b7 89ba 2f2c 0abb db6e fc3a
000000b0: 33bf 07bb abd7 b53a 5140 cfba da3e 2337
000000c0: 31af 07bb c9cf 20ba c104 ceba 3073 133a
000000d0: 0eb6 dfba 1ea2 b63a 3666 b1ba a335 a03e
000000e0: 935a d4ba 6724 08bb 9334 eb3a 5283 c9ba
000000f0: 1b3b 81be 954a a2ba 72dc 7539 849b 6838
00000100: e6f6 503a 2484 3eba 7699 b8ba cfd3 1538
00000110: 8a52 303f c679 d63e 729e 57ba 16be 07b7
00000120: fd1c 3eba a2f3 a5ba 524e 4eba f768 ac3a
00000130: 0c7e a739 ffbe a03a 4100 983a b31d 5f3a
00000140: c9bb 7538 2acd 9f3a ea92 873d c2cb a83a
00000150: 4c12 583f d0bf 5fbb ba53 29be 4cc6 62ba
00000160: ecf8 7e3a dc34 1aba a6dc aaba 0b18 9fbe
00000170: 491e ae3a f1fb a3ba d12c a23a 5497 82ba
00000180: 0b09 aabe 3f2f 0e3e e69f 79ba 1264 b53a
00000190: 4a81 083a 3a0d b73a 1daf 93ba 8481 99ba
000001a0: de88 a9ba 71d1 ad3a ebed 803a 30e4 1bba
000001b0: f32f 963a af4f d538 a549 f038 8e08 9b3a
000001c0: a59b 933a 9b42 84ba 784a b93a cd49 b3ba
000001d0: 1cbd b13a 9689 5139 f709 16b9 058b b43e
000001e0: 0cde e138 0d82 563a 6405 d4b9 9fcc b63a
000001f0: 5f8b 01bf 2d25 b63a c1f3 a7ba f705 a2ba
00000200: b0a4 8bba 283a 903a 6d15 dd3a 44bf d939
00000210: de41 0a3f 313f d93e 8174 c239 d87c 9cb9
00000220: 8271 bf39 1613 8e3a 16c7 973a 12a7 a8ba
00000230: 453e 1938 0b6a 99ba dfa6 b9ba 16f3 edb9
00000240: 0a4b a039 0f4d 96ba 1bd7 533e cf14 acba
00000250: 7848 4d3f 5c30 31bb 9f2a e6be 7949 953a
00000260: 8f25 9fba 6f35 673a 3b13 b53a 5e12 44bf
00000270: b513 deba dbe7 863a 5393 d2ba 7f19 b13a
00000280: 9de0 c7be 0e2a d33e 21f5 9f3a dbb2 daba
00000290: af05 3eb9 458f cdba de5b 7d3a 6d66 b83a
000002a0: 41da bd3a eaca b5ba b553 a0ba 8da9 813a
000002b0: ee15 beba 817d 3039 6ca1 d3b9 1c2d 96ba
000002c0: 5124 b6ba f742 2f3a 2125 dbba 57b0 bb3a
000002d0: b11d d3ba 23bc 3739 a733 f7b8 63fd a23e
000002e0: b3a8 0eba 784e 8eba 9d9c 4e3a deba daba
000002f0: e732 1cbf 926a d5ba 61cb a83a 16dd 9d3a
-0.0020655321 0.0020815104 0.0017103776 0.0015206416 0.69735867 0.27593774 -0.0009374632 -0.0015047197
-0.00096541067 0.00013451366 0.0020535125 -0.00034316498 0.0012504605 -8.197e-06 -0.0020391939 0.0008500519
0.0015118116 3.2012085e-05 -0.02766789 -0.000323964 0.8861037 -0.0012162275 0.48139927 0.0021050435
-0.0020798494 0.0019456081 0.00050926005 0.1390441 -0.0019453242 -1.5054969e-05 -0.0021403602 0.002178927
-0.27421898 0.11754177 0.0021196057 -0.001365853 0.0011205141 -0.0010015148 -0.00033368505 0.0020194463
0.0014830403 -0.0010506944 -0.0021083464 0.0019259112 -0.002071333 0.0013873478 -0.0015812014 9.730191e-06
-0.0020703787 -0.0006134478 -0.001571797 0.0005624769 -0.0017067806 0.0013933813 -0.001353449 0.31290922
-0.001620131 -0.002077365 0.0017944745 -0.001537422 -0.25240406 -0.0012381846 0.00023447143 5.5457946e-05
0.0007971361 -0.00072676153 -0.0014083821 3.572163e-05 0.68875945 0.4188978 -0.00082252093 -8.090885e-06
-0.00072522444 -0.0012661109 -0.0007869947 0.001315384 0.00031946634 0.0012263953 0.0011596755 0.00085112004
5.858744e-05 0.0012191881 0.066198185 0.0012878107 0.8440292 -0.0034141429 -0.16535845 -0.00086507644
0.00097264233 -0.00058825104 -0.0013035729 -0.3107303 0.0013284172 -0.0012510997 0.0012372975 -0.0009963312
-0.33210024 0.1388521 -0.0009522423 0.0013839027 0.0005207254 0.0013965734 -0.0011267398 -0.0011711572
-0.0012934466 0.0013261271 0.000983653 -0.00059467833 0.0011458382 0.00010171474 0.00011457809 0.0011828111
0.0011261596 -0.0010090651 0.0014136573 -0.001367861 0.0013560387 0.00019983048 -0.00014308827 0.35262313
0.000107701955 0.0008182831 -0.00040439807 0.001394648 -0.5060329 0.0013896577 -0.0012813733 -0.0012361397
-0.0010653939 0.001100366 0.0016867347 0.0004153197 0.54006755 0.42431024 0.00037089366 -0.00029847655
0.0003651493 0.0010839428 0.0011579718 -0.0012867174 3.6536036e-05 -0.0011704577 -0.0014164111 -0.00045385276
0.00030573487 -0.0011467057 0.20687525 -0.001312876 0.80188704 -0.002703688 -0.44954392 0.0011389694
-0.0012141931 0.0008819913 0.0013814935 -0.76590526 -0.0016943129 0.0010292487 -0.0016065635 0.0013511627
-0.39038554 0.41243023 0.0012203791 -0.0016685383 -0.0001812193 -0.0015682956 0.00096648734 0.0014068611
0.00144846 -0.0013869677 -0.0012231978 0.0009892449 -0.0014502385 0.00016831422 -0.00040365325 -0.0011457535
-0.0013896321 0.0006685699 -0.0016719439 0.0014319521 -0.0016106871 0.00017522326 -0.00011787499 0.31833944
-0.0005442008 -0.0010857126 0.00078816136 -0.0016687771 -0.6101517 -0.0016282371 0.0012877994 0.0012044038
