classification/LSTM/model_save/LSTMmodel_tlstage128.pth (torch_old, 270735 bytes, 5 tensors)

lstm.weight_ih_l0 f4 [512, 1]
000000 9a 4a b6 ba 5e 41 16 ba b2 9b 04 bc de 45 c1 ba
       -0.0013907731 -0.00057317864 -0.008093761 -0.0014745553
000010 e1 e4 c4 ba 4a 03 17 ba 39 96 dc bb f1 c3 af bb
       -0.0015021825 -0.0005760683 -0.006731775 -0.005363934
000020 f4 d0 ca b9 64 1d 11 3f 78 01 f1 bb d0 b8 f3 bb
       -0.00038684125 0.5668547 -0.0073549114 -0.007437803
000030 d5 35 29 bb dc a1 8d b9 bc ba c5 bb 56 89 85 bb
       -0.002581944 -0.0002701421 -0.0060342234 -0.0040752096
000040 99 38 42 ba 49 b4 82 ba e8 b7 42 ba 8d 2d b3 bb
       -0.00074089464 -0.0009971942 -0.0007427917 -0.0054680766
000050 88 b1 6a bb 33 6a a3 ba 7a 7e a5 ba 40 f5 9d b9
       -0.0035811383 -0.0012467563 -0.0012626194 -0.000301281
000060 8f 9c 5c bb ec 8a 44 ba 8a df ac bb ac 53 59 ba
       -0.0033662652 -0.00074975076 -0.0052756714 -0.0008290361
000070 ba 50 0c bb 90 d5 1f bc 37 b5 e1 bb ea a3 4d bb
       -0.0021410421 -0.009755507 -0.0068880576 -0.0031378218
000080 e7 19 c6 b9 23 6c 14 bc f8 8f d8 3e 1c b4 0c bc
       -0.00037784802 -0.009058985 0.4229734 -0.008587863
000090 d6 0a c1 3e ae 7d b1 bb d7 5f 8d ba 16 91 e3 bb
       0.3770358 -0.0054165935 -0.0010786009 -0.006944786
0000a0 b2 19 0b ba 48 86 0d bc ba 85 18 ba 04 9b 4b ba
       -0.0005306258 -0.008637972 -0.00058182667 -0.00077669346
0000b0 c7 64 e8 bb 11 86 0e bb 63 30 d9 bb 2f 1f 88 bb
       -0.0070920917 -0.002174739 -0.0066280826 -0.004154108
0000c0 f8 78 95 bb c3 5c 1f bc 56 ab e3 bb a8 62 46 bb
       -0.0045615397 -0.009726706 -0.006947915 -0.0030271206
0000d0 42 1b 81 ba 03 4e 69 ba d9 cd 86 bb 8e 22 73 ba
       -0.0009850042 -0.0008899869 -0.0041138944 -0.00092748634
0000e0 39 86 a4 3d 91 1d ba bb 22 a9 00 ba 27 83 84 ba
       0.080334134 -0.005679794 -0.0004908015 -0.0010109887
0000f0 4b 04 02 bc db 65 0f ba b1 92 89 ba 85 be 80 bb
       -0.007935594 -0.0005470195 -0.0010495988 -0.0039289617
000100 71 ca cd ba cf 1d 18 bc 43 69 18 ba 17 b0 84 ba
       -0.0015700591 -0.009284451 -0.0005814025 -0.001012328
000110 e6 e2 20 bb 61 4a f8 ba c6 3f 20 bb 10 c7 09 bb
       -0.0024549305 -0.0018943065 -0.0024452074 -0.0021023192
000120 b7 07 f4 bb 27 30 54 bb 5d 5d 27 bb 88 21 77 ba
       -0.0074472087 -0.0032377334 -0.0025537827 -0.0009427299
000130 23 93 3a ba 41 e5 47 bc b1 b6 76 bb 78 35 ed bb
       -0.0007117262 -0.0122006545 -0.0037645514 -0.00723904
000140 62 eb 89 bb 0f 7a 74 bb af 3d 4f ba bb d4 01 bb
       -0.004208968 -0.0037304198 -0.0007905615 -0.0019810635
000150 3b f1 c3 ba 8c f6 59 ba dc 4a 92 bb 71 b0 e1 bb
       -0.0014949212 -0.00083146314 -0.0044644903 -0.0068874885
000160 84 65 fc ba 66 2a 14 bc 16 b8 b6 bb d9 dd ee ba
       -0.0019256328 -0.009043312 -0.005576144 -0.0018224075
000170 d5 2d e9 b9 3d 47 22 bb 0a 35 fa b9 75 25 c3 bb
       -0.0004447537 -0.00247617 -0.00047723233 -0.005955393
000180 3b 0e 65 bb e2 71 b4 ba 37 31 0e 40 2d 15 06 bb
       -0.003495111 -0.001376685 2.2217538 -0.00204594
000190 cf a2 13 3f df 23 ff b9 7f 46 6d 3f 51 f4 2a ba
       0.576703 -0.00048664116 0.92685694 -0.00065213913
0001a0 cc 2b d5 bb 96 c8 8d 3e 48 e1 71 bb b4 33 06 ba
       -0.006505465 0.27692097 -0.003690796 -0.00051193987
0001b0 ea ca 1f ba bb 8d 84 ba bd 94 80 bb 67 5d fe bb
       -0.0006095605 -0.001011304 -0.003923981 -0.0077625993
0001c0 b4 8e 70 ba 35 3f e4 3f d3 32 96 ba 6d 07 f8 be
       -0.0009176538 1.7831789 -0.0011459239 -0.48443165
0001d0 36 b6 96 b9 80 5c 0a bb 16 85 e5 bb aa 3d 90 ba
       -0.00028745987 -0.0021112263 -0.0070043905 -0.0011004705
0001e0 39 34 46 ba ff fd 0d ba e3 5c f7 b9 7c 0f 14 bc
       -0.00075608824 -0.00054165715 -0.00047180717 -0.009036895
0001f0 a3 88 54 ba e9 02 a4 bb 7c b0 67 ba fe da 41 ba
       -0.00081075187 -0.0050052297 -0.0008838249 -0.0007394998
000200 9d 30 87 ba 5c 62 e1 b9 16 95 de bb da b0 90 ba
       -0.001031417 -0.00042988628 -0.006792675 -0.0011039034
000210 1b dd 9c ba eb 12 e8 b9 ec ce b7 bb c7 07 8e bb
       -0.001196775 -0.00044264583 -0.005609384 -0.004334423
000220 3a 72 a1 b9 e5 a0 a3 3c df d0 c5 bb db d5 d0 bb
       -0.00030793418 0.019974181 -0.0060368623 -0.00637315
000230 16 5c f8 ba cb cf 58 b9 58 ef a1 bb 73 86 4f bb
       -0.0018948342 -0.00020676774 -0.004941862 -0.0031665831
000240 82 9f 11 ba 83 53 4d ba 53 45 13 ba aa 4d 8f bb
       -0.00055550796 -0.00078325736 -0.0005617935 -0.004373272
000250 43 2e 46 bb 9b 46 5a ba f2 20 77 ba f8 9b 74 b9
       -0.0030239976 -0.0008326561 -0.00094272115 -0.00023327756
000260 25 b8 3f bb df 99 0f ba eb a6 94 bb bb e9 2f ba
       -0.0029254046 -0.00054779457 -0.0045364997 -0.0006710549
000270 a8 76 e5 ba 24 4d 08 bc 52 a3 b8 bb 54 c5 2a bb
       -0.0017506676 -0.008319173 -0.0056347037 -0.0026057558
000280 f3 4c 87 b9 9e b0 f6 bb 53 ea da be 17 16 ee bb
       -0.00025806538 -0.0075283786 -0.427569 -0.007265817
000290 d2 9b 8d be 2e 29 a0 bb 0e e6 57 ba 59 1a b8 bb
       -0.27657944 -0.0048877215 -0.000823588 -0.0056183753
0002a0 7b 5f bf b9 87 85 f9 bb 1a 3b da b9 f5 af 29 ba
       -0.00036501497 -0.0076147947 -0.00041624234 -0.0006473058
0002b0 91 74 c0 bb 6b 6b f4 ba da 78 b1 bb d7 7a 55 bb
       -0.005873271 -0.0018647736 -0.005416018 -0.003257444
0002c0 e3 13 8a bb 16 36 0d bc a0 30 ba bb 1d 7d 13 bb
       -0.0042137965 -0.008618852 -0.005682066 -0.0022504993
0002d0 56 e9 5b ba db 3d 44 ba d5 29 57 bb 54 37 4c ba
       -0.0008388957 -0.0007486024 -0.003283133 -0.0007790227
0002e0 6f 81 b3 be ab fd 95 bb 74 35 bf b9 f5 fa 61 ba
       -0.35059687 -0.0045773587 -0.00036470185 -0.00086204644
0002f0 27 c5 d8 bb c3 85 d2 b9 8c 56 59 ba 4e 01 48 bb
       -0.0066152993 -0.00040153982 -0.00082907896 -0.0030518356
000300 54 dd a9 ba 34 8e 03 bc 44 e5 d2 b9 e6 37 5f ba
       -0.0012959638 -0.008029509 -0.00040225137 -0.00085151044
000310 4e 3b df ba ac e9 b2 ba 3f ca 08 bb 7e 24 ee ba
       -0.0017031224 -0.0013649962 -0.0020872501 -0.0018168835
000320 73 c8 da bb 25 a0 3f bb ed 0e f4 ba 9c be 40 ba
       -0.0066767274 -0.002923974 -0.0018620171 -0.0007352622
000330 12 c4 02 ba 83 79 2c bc 26 16 3a bb a7 16 be bb
       -0.0004988323 -0.0105270175 -0.002839455 -0.00580104
000340 4a e8 58 bb 56 1a 40 bb 46 0f 10 ba 0f 0f ab ba
       -0.003309744 -0.0029312572 -0.000549544 -0.0013050752
000350 91 74 92 ba 3e f8 11 ba 96 e3 7c bb 33 9e b8 bb
       -0.0011173656 -0.0005568302 -0.00385878 -0.005634093
000360 a6 d2 e4 ba 45 d9 f4 bb 3f 44 97 bb 17 74 d5 ba
       -0.0017457798 -0.0074721896 -0.00461629 -0.0016285208
000370 5d 86 b7 b9 7a 21 f9 ba 5a ae b4 b9 44 76 9d bb
       -0.00035004588 -0.0019007169 -0.00034462177 -0.004805358
000380 49 46 2e bb f0 d4 7e ba e7 9d 9f bd 8c 48 c1 ba
       -0.0026592186 -0.0009721061 -0.07793789 -0.0014746352
000390 44 3f 18 3f ab 16 b7 b9 8a 16 49 3f 09 a4 06 ba
       0.59471536 -0.0003492137 0.78550017 -0.00051361375
0003a0 4f c8 af bb 00 3e ad be cc 41 3a bb b2 03 c5 b9
       -0.005364455 -0.33836365 -0.0028420566 -0.0003757752
0003b0 32 0a ef b9 af ca 48 ba 8a 12 64 bb ed 51 d6 bb
       -0.00045593228 -0.0007659597 -0.003480109 -0.006540528
0003c0 30 dd 3a ba 49 85 fe 3e db 89 81 ba 1b 30 80 be
       -0.00071282964 0.49711064 -0.0009883003 -0.25036702
0003d0 0e 41 5a b9 38 b7 c8 ba 07 b2 cf bb ef 87 79 ba
       -0.00020814335 -0.0015313393 -0.006338361 -0.0009518852
0003e0 bc 9e 22 ba 25 8a e6 b9 9d 61 be b9 01 68 f4 bb
       -0.0006203463 -0.00043971944 -0.00036312352 -0.0074586873
0003f0 24 46 19 ba 85 3d 7e bb 20 55 3c ba 39 0b 14 ba
       -0.00058469386 -0.0038793993 -0.00071843155 -0.0005647424

lstm.weight_hh_l0 f4 [512, 128]
000000 a6 7d 3d 37 35 13 01 b6 77 55 27 36 c5 82 47 b7
       1.1294533e-05 -1.9233678e-06 2.4934686e-06 -1.18917715e-05
000010 7e 3d cc b5 74 b7 15 b6 e4 3b ce 36 00 f5 79 35
       -1.5217081e-06 -2.2309514e-06 6.1462506e-06 9.311625e-07
000020 19 b2 06 b6 f0 d6 d5 39 8f 0f 0e 37 91 45 12 37
       -2.0071222e-06 0.00040786667 8.467482e-06 8.718475e-06
000030 f6 92 8b 33 f5 54 ad b4 48 b2 06 b6 47 c0 1a b6
       6.499424e-08 -3.2285575e-07 -2.007133e-06 -2.3059708e-06
000040 79 34 9f b6 7b 2e 07 33 9f 56 c8 35 cb 67 4d 35
       -4.744678e-06 3.147441e-08 1.4926371e-06 7.651949e-07
000050 59 3f 38 b7 5f 3f 35 b7 97 6c 4d 37 fb 1c 14 36
       -1.0982004e-05 -1.0803195e-05 1.2244235e-05 2.2070587e-06
000060 31 cb 9a b4 f2 74 52 35 1c c5 e3 36 a1 2a d1 35
       -2.8832577e-07 7.8401274e-07 6.7880737e-06 1.558412e-06
000070 8e aa 34 b6 4c ce f3 b6 81 eb ec b5 e6 58 71 b6
       -2.6921366e-06 -7.2659805e-06 -1.7651911e-06 -3.5963544e-06
000080 13 2a 06 b6 a4 e2 1e b6 de 93 7f 36 48 a8 91 b7
       -1.9992046e-06 -2.3675757e-06 3.808403e-06 -1.7363709e-05
000090 e9 10 f6 b7 95 08 6c b7 22 6b c9 b5 fa 99 96 b5
       -2.933336e-05 -1.4068694e-05 -1.5006847e-06 -1.1220684e-06
0000a0 e6 98 cd b5 f9 5a b6 37 9f 50 97 35 1a 27 88 36
       -1.531819e-06 2.1738453e-05 1.127384e-06 4.057668e-06
0000b0 da b4 ae 36 7b 7e df b6 b5 b6 c8 34 9a 87 22 b6
       5.206658e-06 -6.660642e-06 3.738584e-07 -2.4218812e-06
0000c0 40 1f 17 38 a4 b3 14 38 52 cf 2b b3 84 d9 5a b6
       3.603031e-05 3.5453253e-05 -4.0002597e-08 -3.2611142e-06
0000d0 bb a2 d4 36 82 ed b2 36 ba 63 43 36 83 94 a2 36
       6.3370367e-06 5.332463e-06 2.9115313e-06 4.8452653e-06
0000e0 12 47 95 b8 4e e6 73 35 7d 27 dc b5 08 05 c9 b6
       -7.1181115e-05 9.085969e-07 -1.640277e-06 -5.9908525e-06
0000f0 ad 2e a6 36 87 b5 07 36 49 a3 81 b7 e7 0e 56 b6
       4.9526193e-06 2.022223e-06 -1.5454034e-05 -3.189716e-06
000100 9a af 26 34 ab ca 17 b7 d3 7c 4d 35 15 7e 25 b6
       1.5523838e-07 -9.047489e-06 7.6550094e-07 -2.4660305e-06
000110 c5 6e 24 b6 7d f7 f1 36 ce 69 b3 36 56 c0 82 34
       -2.450238e-06 7.211171e-06 5.346933e-06 2.435433e-07
000120 e4 ab 76 38 21 a7 99 b6 a8 83 09 b5 6c 54 95 b2
       5.8811056e-05 -4.5792117e-06 -5.122806e-07 -1.7384274e-08
000130 56 60 3e 36 97 48 d2 b6 05 9c b5 b5 44 77 9b b4
       2.8368281e-06 -6.2669383e-06 -1.3530959e-06 -2.8957777e-07
000140 f3 7d 2d 36 cd 62 6f b6 57 57 08 b6 7f 75 63 b7
       2.585232e-06 -3.5671285e-06 -2.0316418e-06 -1.3557611e-05
000150 8e 43 48 37 26 72 af b4 4f 43 35 36 ee 9a 2f b3
       1.1936658e-05 -3.2679344e-07 2.701028e-06 -4.088627e-08
000160 04 1c 38 b6 ba 4a da b6 b1 45 80 36 25 5d 10 37
       -2.7434444e-06 -6.5056056e-06 3.8228104e-06 8.604756e-06
000170 fe ba 5b 36 0d 62 4c 36 77 71 17 b6 46 fd dc 34
       3.2742387e-06 3.0455442e-06 -2.2566799e-06 4.1162474e-07
000180 a0 6a 80 36 dd e5 93 b6 72 67 d5 b9 2f d3 bd b6
       3.82711e-06 -4.407701e-06 -0.000407036 -5.657224e-06
000190 52 b4 21 ba 93 87 4b 35 f1 0c 91 39 ca 04 6d 36
       -0.00061685324 7.582068e-07 0.00027666197 3.531854e-06
0001a0 e7 01 1e 37 77 4d 2c 38 57 3c 6b 36 78 fe 1d 36
       9.417977e-06 4.108014e-05 3.5052851e-06 2.3542943e-06
0001b0 83 90 ea b5 18 49 54 b7 47 88 fa 35 58 b8 02 b6
       -1.7476417e-06 -1.2653203e-05 1.8666113e-06 -1.9478812e-06
0001c0 f5 31 17 37 de 02 41 ba 99 77 d9 b6 89 34 10 b9
       9.011933e-06 -0.0007362793 -6.481027e-06 -0.00013752481
0001d0 9c e3 f6 35 e8 18 14 b7 2b 68 30 b7 8b b9 dc 36
       1.8394671e-06 -8.827286e-06 -1.0514671e-05 6.578111e-06
0001e0 32 1a 38 b6 01 c6 f6 35 80 e2 e7 b5 c0 ed c5 36
       -2.7433384e-06 1.8386055e-06 -1.7276761e-06 5.8987353e-06
0001f0 39 73 b5 b6 c6 c7 ab 34 dc d3 4d 36 9b 78 31 b6
       -5.407634e-06 3.1996586e-07 3.0670699e-06 -2.6445257e-06
000200 42 23 63 b5 bb 87 d6 34 87 e3 9a b4 61 29 6f 35
       -8.4615397e-07 3.9959363e-07 -2.8850283e-07 8.909465e-07
000210 91 e3 25 b5 9c fb f4 34 40 de e4 34 05 97 a7 b5
       -6.179844e-07 4.5631612e-07 4.2630018e-07 -1.2486422e-06
000220 e6 3d 19 b5 d8 3b db 38 1f e3 2e 36 c3 fa 1e b5
       -5.7087016e-07 0.000104538805 2.6060222e-06 -5.9224493e-07
000230 21 59 84 b5 f9 01 13 34 71 f4 79 35 30 e1 8a b5
       -9.860706e-07 1.369116e-07 9.311544e-07 -1.0347339e-06
000240 7b de ce b5 cb 83 ad 35 bd 0c f3 34 a2 7f 86 b4
       -1.5412946e-06 1.2927861e-06 4.5271545e-07 -2.505231e-07
000250 b8 c4 e3 33 91 9a 45 34 f0 b6 d1 b3 6e f2 95 34
       1.0606294e-07 1.8403286e-07 -9.765597e-08 2.7929804e-07
000260 5d 5a 9d b6 ca 6c fa b4 e8 c5 e6 35 d1 dc 43 35
       -4.6894843e-06 -4.6645283e-07 1.7193934e-06 7.296449e-07
000270 8a 90 57 b5 31 7e aa b5 53 fb 3c 35 20 fa 2a b4
       -8.0304073e-07 -1.2702714e-06 7.040118e-07 -1.5923479e-07
000280 65 d1 3a 33 cc 82 da b2 e4 7c e5 36 27 57 61 35
       4.3496943e-08 -2.543802e-08 6.839271e-06 8.3945855e-07
000290 b6 e9 6f b7 04 6c 5c 36 7e e8 d3 b5 c6 de b7 34
       -1.4299925e-05 3.2845428e-06 -1.5788389e-06 3.4248495e-07
0002a0 d1 2d af 34 55 52 34 b4 c8 be 26 b5 91 c7 db 35
       3.2629626e-07 -1.6793759e-07 -6.211744e-07 1.6374853e-06
0002b0 0c 72 87 b5 b7 12 aa b5 fb fd 6b b5 01 f6 3b 35
       -1.0091476e-06 -1.2671434e-06 -8.791391e-07 7.002091e-07
0002c0 0a 25 36 b6 66 43 85 b6 fc 1e 06 35 d6 04 24 b5
       -2.7141673e-06 -3.971555e-06 4.996398e-07 -6.11018e-07
0002d0 e0 d2 00 35 55 87 e5 34 ab fc 54 b3 17 a0 e5 34
       4.799058e-07 4.275304e-07 -4.9589897e-08 4.2771055e-07
0002e0 fa fb 83 b7 0c 55 9b b3 52 09 fa b4 0a 13 e7 b4
       -1.5733753e-05 -7.23322e-08 -4.657291e-07 -4.3040956e-07
0002f0 84 a9 d0 b5 1d b4 61 b5 1c d8 28 b6 56 24 81 b5
       -1.5546543e-06 -8.408113e-07 -2.5159743e-06 -9.621824e-07
000300 ba bb 5a 35 cc 36 d8 b6 07 c3 81 b4 19 ba 30 b6
       8.1484507e-07 -6.443681e-06 -2.4170023e-07 -2.6334367e-06
000310 e8 0d f6 32 f1 1a ba 34 76 dd 32 36 44 41 0a 35
       2.8644493e-08 3.4664802e-07 2.6652974e-06 5.150398e-07
000320 ac 72 d7 b6 1e d0 75 b5 b9 3e 61 35 1b 72 c0 b5
       -6.420849e-06 -9.157246e-07 8.3910305e-07 -1.4338324e-06
000330 db c2 57 35 10 bb 9f b5 5e d2 bf b5 7d 8c 71 36
       8.0377293e-07 -1.1900866e-06 -1.4291834e-06 3.5993573e-06
000340 61 26 1b b4 db 5c af b4 b2 fd 6f b5 02 4d 0c 35
       -1.4449462e-07 -3.266385e-07 -8.9403613e-07 5.2266125e-07
000350 d2 c9 6f b5 81 cc 33 b3 7f 48 c5 35 af 7f 1f 35
       -8.9328125e-07 -4.186268e-08 1.4698743e-06 5.941792e-07
000360 ce 5c 80 36 f2 1e f1 b5 60 6c ca 35 42 19 08 b5
       3.825501e-06 -1.7964906e-06 1.5081714e-06 -5.0700703e-07
000370 13 12 80 b5 9b 4d 4f b5 23 bb 05 35 d0 ad d1 b5
       -9.542003e-07 -7.722644e-07 4.981868e-07 -1.56223e-06
000380 e5 cc 40 35 8d c0 26 35 2e 4e cd b8 8a 77 0d b5
       7.1823735e-07 6.212002e-07 -9.789724e-05 -5.2700545e-07
000390 65 a0 4e b9 67 5f 6a 35 dc 55 46 38 f6 25 ab b5
       -0.00019705443 8.731062e-07 4.728684e-05 -1.2751541e-06
0003a0 17 c5 1d b5 67 7f 04 b8 88 ae 96 35 fa 20 d6 b4
       -5.877386e-07 -3.1589905e-05 1.1226666e-06 -3.98846e-07
0003b0 4e e2 ae 35 91 2a fa b5 f6 bb 64 b6 9c d3 f0 b5
       1.3029874e-06 -1.863884e-06 -3.4084055e-06 -1.794298e-06
0003c0 06 ac 04 36 ae 4e 8c b9 7a e1 71 b5 3d 24 ed b7
       1.9769664e-06 -0.00026761502 -9.010761e-07 -2.8269476e-05
0003d0 66 ef 66 b5 c9 fa 71 b5 9e 8d b8 36 54 3c 73 35
       -8.603005e-07 -9.0144437e-07 5.5001137e-06 9.0612343e-07
0003e0 17 ab b2 b5 31 08 35 34 56 3d 28 b5 d8 10 0a 35
       -1.3311827e-06 1.6859919e-07 -6.267413e-07 5.1433517e-07
0003f0 df d0 9c b5 0c 3b 78 b5 c1 0d 1a b6 38 83 de b5
       -1.1683695e-06 -9.2473124e-07 -2.2955794e-06 -1.6578479e-06

lstm.bias_ih_l0 f4 [512]
000000 ca e6 f0 ba df 8f 53 ba 4b b5 18 bc 34 38 fe ba
       -0.0018379327 -0.00080704497 -0.009320567 -0.0019395412
000010 a8 b6 eb ba 51 2c 50 ba af 27 f8 bb ae cb d3 bb
       -0.0017983513 -0.0007941174 -0.00757309 -0.0064634895
000020 3b ae 0c ba d2 aa 3f 3f 42 24 09 bc 1d 7b 0a bc
       -0.00053665385 0.74870026 -0.008370461 -0.008452204
000030 7f 1f 5b bb 4f a6 a6 b9 f9 06 f0 bb 71 92 9c bb
       -0.0033435521 -0.00031785897 -0.00732505 -0.0047781994
000040 d7 55 75 ba 94 62 90 ba 4b ab 6f ba e9 be ce bb
       -0.00093587994 -0.0011015707 -0.0009142651 -0.0063093794
000050 6f e5 84 bb de e5 ce ba b8 5c da ba 5e ff df b9
       -0.004055671 -0.0015785058 -0.0016659712 -0.00042724138
000060 74 68 70 bb ee f6 7b ba ba eb c1 bb 0f 5b 72 ba
       -0.0036683353 -0.00096116855 -0.0059179934 -0.0009245136
000070 d2 44 24 bb 32 65 3a bc a2 54 07 bc d4 6c 6c bb
       -0.0025065434 -0.011376666 -0.008259924 -0.0036075609
000080 40 75 fe b9 a9 99 31 bc 8a e4 f6 3e 9a ca 23 bc
       -0.00048534013 -0.010839858 0.48221236 -0.009997034
000090 e1 3d b1 3e 78 b7 b8 bb 43 f7 9d ba 89 1b 08 bc
       0.34617522 -0.0056371056 -0.0012051839 -0.008307346
0000a0 68 9e 2f ba da 8c 23 bc 37 f9 3c ba 51 b3 50 ba
       -0.00066993246 -0.009982312 -0.0007208767 -0.00079612905
0000b0 b4 e9 06 bc aa 01 26 bb c8 70 fb bb 8f 56 a2 bb
       -0.00823443 -0.0025330582 -0.0076733567 -0.0049541662
0000c0 a5 99 9a bb 01 77 31 bc 81 02 05 bc 2f 6a 73 bb
       -0.004718023 -0.010831595 -0.008118273 -0.0037142148
0000d0 b9 67 8e ba 98 2f 82 ba f5 7f a0 bb ef 4f 88 ba
       -0.0010864652 -0.0009932397 -0.004898066 -0.0010399799
0000e0 e6 83 05 bf 37 10 db bb 1d e9 24 ba a7 0f 93 ba
       -0.52154386 -0.0066852826 -0.000629084 -0.0011219875
0000f0 77 9a 1b bc 6d 5c 34 ba 78 a7 b0 ba 4d 75 97 bb
       -0.0094972765 -0.00068802276 -0.0013477644 -0.0046221376
000100 6c 7d dd ba 49 e8 36 bc a9 4a 3b ba 98 d4 98 ba
       -0.001689834 -0.01116378 -0.0007144609 -0.0011660038
000110 0d be 49 bb 36 c8 23 bb 4e 69 37 bb 17 37 19 bb
       -0.0030783445 -0.0024991161 -0.002798635 -0.0023378783
000120 49 eb 00 bc aa 43 5b bb 71 02 5a bb 1f b2 8f ba
       -0.007868596 -0.003345708 -0.0033265615 -0.0010963118
000130 07 4d 68 ba 15 71 6e bc 30 57 8e bb cd 12 15 bc
       -0.00088615756 -0.014553328 -0.0043438897 -0.009098721
000140 40 a9 a3 bb 63 f0 93 bb fd 19 6d ba 7f 1d 2e bb
       -0.0049945414 -0.0045147403 -0.0009044705 -0.0026567874
000150 bd 9b 00 bb 61 ca 9a ba 68 af a0 bb 2d a7 01 bc
       -0.0019624077 -0.0011809581 -0.0049037226 -0.007913393
000160 44 3f 03 bb 26 58 2d bc ce 52 d7 bb b9 60 f9 ba
       -0.0020026723 -0.010580098 -0.0065711504 -0.0019026018
000170 ea f7 1b ba 20 e5 49 bb 5a 2c 1f ba 4c 50 de bb
       -0.0005949723 -0.0030806735 -0.00060719776 -0.0067844745
000180 61 d4 89 bb 27 a2 ec ba b4 5a 0f bf cc 34 30 bb
       -0.0042062257 -0.0018053696 -0.55997777 -0.0026886938
000190 4c 96 e1 3c 06 3d 1b ba 5c c0 d3 3e b9 ac 3d ba
       0.027537487 -0.0005921874 0.41357696 -0.00072355155
0001a0 8d ad de bb 46 d4 ec bd d5 41 90 bb c6 8f 2a ba
       -0.006795591 -0.115639254 -0.004402379 -0.0006506409
0001b0 36 54 45 ba 87 2d a7 ba a1 93 88 bb 13 5f 11 bc
       -0.0007527502 -0.0012754657 -0.0041679894 -0.008872765
0001c0 27 91 97 ba 7e ce 65 be b6 ea a1 ba 1d f7 ea bc
       -0.0011563645 -0.22442052 -0.0012353275 -0.028682286
0001d0 9a 9c b4 b9 df 44 38 bb 21 fe f1 bb 39 4b 9c ba
       -0.00034448953 -0.0028117222 -0.007385031 -0.0011924274
0001e0 07 2f 6d ba 00 6f 3c ba a1 43 15 ba e9 fc 2d bc
       -0.000904784 -0.0007188171 -0.00056939764 -0.0106193805
0001f0 83 a9 85 ba f5 0e bd bb b4 92 89 ba 9c f2 70 ba
       -0.0010197613 -0.0057696053 -0.0010495991 -0.0009191425
000200 fc db b4 ba b8 ef 20 ba 7c e6 01 bc ab f6 c0 ba
       -0.0013798471 -0.00061392365 -0.007928487 -0.001472195
000210 9c 80 c7 ba f4 43 23 ba bc 9c d3 bb 84 2d af bb
       -0.0015220824 -0.00062280823 -0.006457893 -0.005346002
000220 a0 21 e9 b9 5a 28 1c be 72 1b e3 bb fd 94 ef bb
       -0.00044466276 -0.15249768 -0.006930762 -0.007311462
000230 b1 9c 28 bb e3 6e 7a b9 6f 28 c6 bb b8 85 80 bb
       -0.002572816 -0.00023883166 -0.0060473005 -0.0039221905
000240 74 64 38 ba e0 dc 6b ba a1 53 41 ba 52 56 ad bb
       -0.00070340117 -0.00089974515 -0.00073748274 -0.005289831
000250 34 43 5d bb d6 6d 8a ba b3 7d a2 ba 25 6a b4 b9
       -0.003376198 -0.0010561298 -0.001239708 -0.0003441136
000260 96 f1 41 bb 86 c8 40 ba a1 4e a0 bb 3e f4 45 ba
       -0.002959346 -0.0007354099 -0.004892186 -0.00075513485
000270 f0 b4 0e bb 8a 50 1f bc 42 1c e0 bb 6a 08 50 bb
       -0.0021775328 -0.009723792 -0.006839306 -0.0031743296
000280 67 e4 b4 b9 11 7a 14 bc b5 2e 19 be 75 82 0b bc
       -0.00034502448 -0.009062306 -0.14959224 -0.00851499
000290 39 fd f4 3e 05 75 9e bb 2a ff 80 ba 43 ed e1 bb
       0.47849444 -0.004835727 -0.000984167 -0.006894739
0002a0 39 58 fe b9 86 45 0d bc 29 63 0d ba 61 b0 29 ba
       -0.00048512386 -0.008622533 -0.0005393499 -0.0006473121
0002b0 e3 68 e4 bb b0 5e 0c bb a2 a6 d4 bb 66 7b 85 bb
       -0.0069705113 -0.0021418743 -0.0064895907 -0.004073548
0002c0 82 7f 88 bb 7b d2 17 bc 58 dd df bb b9 32 3f bb
       -0.0041655907 -0.009266491 -0.006831806 -0.002917452
0002d0 64 91 6e ba ee f7 58 ba d5 32 85 bb c4 18 64 ba
       -0.00091006444 -0.00082766905 -0.0040648975 -0.00087012
0002e0 60 33 a9 be 52 39 b7 bb 3f ca 01 ba b1 71 77 ba
       -0.3304701 -0.00559155 -0.00049510965 -0.00094392436
0002f0 f6 e5 01 bc 25 ea 08 ba 7a 28 85 ba 8f c9 78 bb
       -0.007928362 -0.00052228785 -0.0010159158 -0.0037961935
000300 01 68 b8 ba 6f 86 1c bc 14 3b 0a ba a5 ae 77 ba
       -0.0014069082 -0.009553536 -0.00052730856 -0.00094483263
000310 6b 29 14 bb 8a 33 f6 ba 67 8a 0d bb 40 69 07 bb
       -0.0022607695 -0.001878367 -0.0021597387 -0.00206621
000320 4f ed dd bb e6 29 3c bb c3 b6 26 bb 47 a0 6a ba
       -0.006772674 -0.0028711497 -0.0025438524 -0.0008950275
000330 1a 48 2b ba 65 31 4d bc a3 0f 63 bb 2b f4 f0 bb
       -0.00065338763 -0.012523984 -0.0034646771 -0.007353326
000340 2e fe 86 bb e2 f8 71 bb 18 7d 37 ba cb f9 e8 ba
       -0.004119656 -0.0036922027 -0.00069995364 -0.001777464
000350 ee fc c2 ba e6 6e 55 ba ba a4 92 bb 67 b2 db bb
       -0.0014876404 -0.00081418303 -0.0044752033 -0.006704617
000360 5d 99 e2 ba 9a 6f 0f bc 8e d8 b4 bb b4 77 d4 ba
       -0.0017288137 -0.008754635 -0.0055189794 -0.0016209991
000370 bc 6a f7 b9 6b c2 1f bb e4 af f1 b9 a1 53 bb bb
       -0.00047191035 -0.0024377357 -0.0004609815 -0.0057167565
000380 86 5d 5d bb d9 44 af ba 6b aa a7 be c4 d1 04 bb
       -0.0033777668 -0.0013371959 -0.32747206 -0.0020266632
000390 42 de 40 3d 84 76 ef b9 52 45 bd be e2 91 19 ba
       0.04708696 -0.00045673933 -0.3696695 -0.0005858225
0003a0 74 e4 b7 bb 04 3a 73 be 81 4e 6a bb 9a 79 02 ba
       -0.0056119505 -0.237526 -0.0035752358 -0.00049772265
0003b0 17 82 14 ba 4e 30 79 ba 5c 64 69 bb ab 83 f8 bb
       -0.0005665137 -0.0009505794 -0.0035612797 -0.0075840554
0003c0 2d 9d 66 ba cf ff f6 be c7 06 88 ba 29 48 0d be
       -0.0008797225 -0.4824204 -0.0010377996 -0.13797058
0003d0 71 8e 86 b9 fc b7 0a bb fd ee d1 bb 59 81 83 ba
       -0.000256646 -0.0021166792 -0.0064066635 -0.0010033055
0003e0 f6 56 46 ba 69 60 1e ba f9 99 ee b9 a3 30 10 bc
       -0.0007566059 -0.0006041588 -0.00045509616 -0.008800658
0003f0 4b 4e 44 ba 5b e0 99 bb 5c 12 54 ba 57 68 36 ba
       -0.0007488473 -0.0046959347 -0.0008089894 -0.0006958297

lstm.bias_hh_l0 f4 [512]
000000 ca e6 f0 ba df 8f 53 ba 4b b5 18 bc 34 38 fe ba
       -0.0018379327 -0.00080704497 -0.009320567 -0.0019395412
000010 a8 b6 eb ba 51 2c 50 ba af 27 f8 bb ae cb d3 bb
       -0.0017983513 -0.0007941174 -0.00757309 -0.0064634895
000020 3b ae 0c ba 21 d8 3f 3f 42 24 09 bc 1d 7b 0a bc
       -0.00053665385 0.7493916 -0.008370461 -0.008452204
000030 7f 1f 5b bb 4f a6 a6 b9 f9 06 f0 bb 71 92 9c bb
       -0.0033435521 -0.00031785897 -0.00732505 -0.0047781994
000040 d7 55 75 ba 94 62 90 ba 4b ab 6f ba e9 be ce bb
       -0.00093587994 -0.0011015707 -0.0009142651 -0.0063093794
000050 6f e5 84 bb de e5 ce ba b8 5c da ba 5e ff df b9
       -0.004055671 -0.0015785058 -0.0016659712 -0.00042724138
000060 74 68 70 bb ee f6 7b ba ba eb c1 bb 0f 5b 72 ba
       -0.0036683353 -0.00096116855 -0.0059179934 -0.0009245136
000070 d2 44 24 bb 32 65 3a bc a2 54 07 bc d4 6c 6c bb
       -0.0025065434 -0.011376666 -0.008259924 -0.0036075609
000080 40 75 fe b9 a9 99 31 bc 72 4a f7 3e 9a ca 23 bc
       -0.00048534013 -0.010839858 0.48298985 -0.009997034
000090 4a 83 ae 3e 78 b7 b8 bb 43 f7 9d ba 89 1b 08 bc
       0.3408454 -0.0056371056 -0.0012051839 -0.008307346
0000a0 68 9e 2f ba da 8c 23 bc 37 f9 3c ba 51 b3 50 ba
       -0.00066993246 -0.009982312 -0.0007208767 -0.00079612905
0000b0 b4 e9 06 bc aa 01 26 bb c8 70 fb bb 8f 56 a2 bb
       -0.00823443 -0.0025330582 -0.0076733567 -0.0049541662
0000c0 a5 99 9a bb 01 77 31 bc 81 02 05 bc 2f 6a 73 bb
       -0.004718023 -0.010831595 -0.008118273 -0.0037142148
0000d0 b9 67 8e ba 98 2f 82 ba f5 7f a0 bb ef 4f 88 ba
       -0.0010864652 -0.0009932397 -0.004898066 -0.0010399799
0000e0 e3 76 02 bf 37 10 db bb 1d e9 24 ba a7 0f 93 ba
       -0.50962657 -0.0066852826 -0.000629084 -0.0011219875
0000f0 77 9a 1b bc 6d 5c 34 ba 78 a7 b0 ba 4d 75 97 bb
       -0.0094972765 -0.00068802276 -0.0013477644 -0.0046221376
000100 6c 7d dd ba 49 e8 36 bc a9 4a 3b ba 98 d4 98 ba
       -0.001689834 -0.01116378 -0.0007144609 -0.0011660038
000110 0d be 49 bb 36 c8 23 bb 4e 69 37 bb 17 37 19 bb
       -0.0030783445 -0.0024991161 -0.002798635 -0.0023378783
000120 49 eb 00 bc aa 43 5b bb 71 02 5a bb 1f b2 8f ba
       -0.007868596 -0.003345708 -0.0033265615 -0.0010963118
000130 07 4d 68 ba 15 71 6e bc 30 57 8e bb cd 12 15 bc
       -0.00088615756 -0.014553328 -0.0043438897 -0.009098721
000140 40 a9 a3 bb 63 f0 93 bb fd 19 6d ba 7f 1d 2e bb
       -0.0049945414 -0.0045147403 -0.0009044705 -0.0026567874
000150 bd 9b 00 bb 61 ca 9a ba 68 af a0 bb 2d a7 01 bc
       -0.0019624077 -0.0011809581 -0.0049037226 -0.007913393
000160 44 3f 03 bb 26 58 2d bc ce 52 d7 bb b9 60 f9 ba
       -0.0020026723 -0.010580098 -0.0065711504 -0.0019026018
000170 ea f7 1b ba 20 e5 49 bb 5a 2c 1f ba 4c 50 de bb
       -0.0005949723 -0.0030806735 -0.00060719776 -0.0067844745
000180 61 d4 89 bb 27 a2 ec ba 2c cc 06 bf cc 34 30 bb
       -0.0042062257 -0.0018053696 -0.5265529 -0.0026886938
000190 54 fa 03 3c 06 3d 1b ba 8a 79 d9 3e b9 ac 3d ba
       0.008055288 -0.0005921874 0.4247554 -0.00072355155
0001a0 8d ad de bb 0b ac e7 bd d5 41 90 bb c6 8f 2a ba
       -0.006795591 -0.113121115 -0.004402379 -0.0006506409
0001b0 36 54 45 ba 87 2d a7 ba a1 93 88 bb 13 5f 11 bc
       -0.0007527502 -0.0012754657 -0.0041679894 -0.008872765
0001c0 27 91 97 ba a4 8f 8e be b6 ea a1 ba 8a 22 df bc
       -0.0011563645 -0.27843964 -0.0012353275 -0.02723815
0001d0 9a 9c b4 b9 df 44 38 bb 21 fe f1 bb 39 4b 9c ba
       -0.00034448953 -0.0028117222 -0.007385031 -0.0011924274
0001e0 07 2f 6d ba 00 6f 3c ba a1 43 15 ba e9 fc 2d bc
       -0.000904784 -0.0007188171 -0.00056939764 -0.0106193805
0001f0 83 a9 85 ba f5 0e bd bb b4 92 89 ba 9c f2 70 ba
       -0.0010197613 -0.0057696053 -0.0010495991 -0.0009191425
000200 fc db b4 ba b8 ef 20 ba 7c e6 01 bc ab f6 c0 ba
       -0.0013798471 -0.00061392365 -0.007928487 -0.001472195
000210 9c 80 c7 ba f4 43 23 ba bc 9c d3 bb 84 2d af bb
       -0.0015220824 -0.00062280823 -0.006457893 -0.005346002
000220 a0 21 e9 b9 4d b2 1c be 72 1b e3 bb fd 94 ef bb
       -0.00044466276 -0.15302391 -0.006930762 -0.007311462
000230 b1 9c 28 bb e3 6e 7a b9 6f 28 c6 bb b8 85 80 bb
       -0.002572816 -0.00023883166 -0.0060473005 -0.0039221905
000240 74 64 38 ba e0 dc 6b ba a1 53 41 ba 52 56 ad bb
       -0.00070340117 -0.00089974515 -0.00073748274 -0.005289831
000250 34 43 5d bb d6 6d 8a ba b3 7d a2 ba 25 6a b4 b9
       -0.003376198 -0.0010561298 -0.001239708 -0.0003441136
000260 96 f1 41 bb 86 c8 40 ba a1 4e a0 bb 3e f4 45 ba
       -0.002959346 -0.0007354099 -0.004892186 -0.00075513485
000270 f0 b4 0e bb 8a 50 1f bc 42 1c e0 bb 6a 08 50 bb
       -0.0021775328 -0.009723792 -0.006839306 -0.0031743296
000280 67 e4 b4 b9 11 7a 14 bc c9 03 1c be 75 82 0b bc
       -0.00034502448 -0.009062306 -0.15235819 -0.00851499
000290 21 fb f4 3e 05 75 9e bb 2a ff 80 ba 43 ed e1 bb
       0.47847846 -0.004835727 -0.000984167 -0.006894739
0002a0 39 58 fe b9 86 45 0d bc 29 63 0d ba 61 b0 29 ba
       -0.00048512386 -0.008622533 -0.0005393499 -0.0006473121
0002b0 e3 68 e4 bb b0 5e 0c bb a2 a6 d4 bb 66 7b 85 bb
       -0.0069705113 -0.0021418743 -0.0064895907 -0.004073548
0002c0 82 7f 88 bb 7b d2 17 bc 58 dd df bb b9 32 3f bb
       -0.0041655907 -0.009266491 -0.006831806 -0.002917452
0002d0 64 91 6e ba ee f7 58 ba d5 32 85 bb c4 18 64 ba
       -0.00091006444 -0.00082766905 -0.0040648975 -0.00087012
0002e0 98 a9 a9 be 52 39 b7 bb 3f ca 01 ba b1 71 77 ba
       -0.33137202 -0.00559155 -0.00049510965 -0.00094392436
0002f0 f6 e5 01 bc 25 ea 08 ba 7a 28 85 ba 8f c9 78 bb
       -0.007928362 -0.00052228785 -0.0010159158 -0.0037961935
000300 01 68 b8 ba 6f 86 1c bc 14 3b 0a ba a5 ae 77 ba
       -0.0014069082 -0.009553536 -0.00052730856 -0.00094483263
000310 6b 29 14 bb 8a 33 f6 ba 67 8a 0d bb 40 69 07 bb
       -0.0022607695 -0.001878367 -0.0021597387 -0.00206621
000320 4f ed dd bb e6 29 3c bb c3 b6 26 bb 47 a0 6a ba
       -0.006772674 -0.0028711497 -0.0025438524 -0.0008950275
000330 1a 48 2b ba 65 31 4d bc a3 0f 63 bb 2b f4 f0 bb
       -0.00065338763 -0.012523984 -0.0034646771 -0.007353326
000340 2e fe 86 bb e2 f8 71 bb 18 7d 37 ba cb f9 e8 ba
       -0.004119656 -0.0036922027 -0.00069995364 -0.001777464
000350 ee fc c2 ba e6 6e 55 ba ba a4 92 bb 67 b2 db bb
       -0.0014876404 -0.00081418303 -0.0044752033 -0.006704617
000360 5d 99 e2 ba 9a 6f 0f bc 8e d8 b4 bb b4 77 d4 ba
       -0.0017288137 -0.008754635 -0.0055189794 -0.0016209991
000370 bc 6a f7 b9 6b c2 1f bb e4 af f1 b9 a1 53 bb bb
       -0.00047191035 -0.0024377357 -0.0004609815 -0.0057167565
000380 86 5d 5d bb d9 44 af ba f1 ed bd be c4 d1 04 bb
       -0.0033777668 -0.0013371959 -0.37095597 -0.0020266632
000390 41 c4 3d 3b 84 76 ef b9 a1 15 bd be e2 91 19 ba
       0.0028956088 -0.00045673933 -0.36930564 -0.0005858225
0003a0 74 e4 b7 bb 95 e5 4d be 81 4e 6a bb 9a 79 02 ba
       -0.0056119505 -0.2010711 -0.0035752358 -0.00049772265
0003b0 17 82 14 ba 4e 30 79 ba 5c 64 69 bb ab 83 f8 bb
       -0.0005665137 -0.0009505794 -0.0035612797 -0.0075840554
0003c0 2d 9d 66 ba a0 04 b4 be c7 06 88 ba 36 48 0d be
       -0.0008797225 -0.3515978 -0.0010377996 -0.13797078
0003d0 71 8e 86 b9 fc b7 0a bb fd ee d1 bb 59 81 83 ba
       -0.000256646 -0.0021166792 -0.0064066635 -0.0010033055
0003e0 f6 56 46 ba 69 60 1e ba f9 99 ee b9 a3 30 10 bc
       -0.0007566059 -0.0006041588 -0.00045509616 -0.008800658
0003f0 4b 4e 44 ba 5b e0 99 bb 5c 12 54 ba 57 68 36 ba
       -0.0007488473 -0.0046959347 -0.0008089894 -0.0006958297

linear.weight f4 [3, 128]
000000 6d 71 c1 b9 cf 78 c2 39 d8 18 37 3a 88 e0 cd 39
       -0.00036896337 0.00037092573 0.0006984598 0.00039267936
000010 4c f9 23 3a 78 51 f4 39 15 f2 97 ba 64 3f 55 b8
       0.00062551047 0.00046600006 -0.0011592532 -5.0842194e-05
000020 4d cb 78 3a 46 62 7a bd 79 88 96 ba f1 f3 a8 ba
       0.00094907434 -0.061128877 -0.0011484764 -0.0012890083
000030 a7 8e 6d b9 77 0f e7 b9 5d 51 48 39 e3 1c f0 37
       -0.00022655223 -0.00044071276 0.00019103797 2.8623681e-05
000040 3c ee cd b7 19 53 dc ba e1 be 70 ba 79 fc c0 37
       -2.454884e-05 -0.0016809433 -0.00091837166 2.300575e-05
000050 3d 8e 9a 3a 18 93 95 37 41 62 e8 b9 dc 96 16 ba
       0.0011791658 1.783068e-05 -0.00044323693 -0.00057445257
000060 a6 4a 2d 3b a8 de fe b9 4d a5 56 bb d5 9c e1 ba
       0.00264422 -0.00048612547 -0.0032752336 -0.0017212877
000070 b4 9b e5 39 2c c5 99 3a 19 7e ed 38 01 4c eb b7
       0.00043794292 0.0011731735 0.00011324528 -2.8049575e-05
000080 4a a8 dd 39 c6 6f be 39 eb 41 a4 3d f3 6b 55 ba
       0.0004227779 0.00036322902 0.08020385 -0.0008141391
000090 f3 61 c4 be 71 72 92 bb e7 38 d2 3a 2a 8a 05 39
       -0.3835598 -0.004469209 0.0016038687 0.00012735339
0000a0 9c 56 0b 3a f4 75 24 3b 8e 44 a0 b9 2d 26 dc ba
       0.0005315335 0.002509472 -0.00030568655 -0.0016796045
0000b0 75 de 88 b9 5e 18 d4 3a 2f 52 03 38 84 bd 3a b8
       -0.00026105685 0.0016181578 3.1309373e-05 -4.4522356e-05
0000c0 07 71 94 3b 3d 9b 93 3b 1c da c1 b5 c8 91 af b8
       0.0045300755 0.00450459 -1.4443099e-06 -8.371804e-05
0000d0 c5 7f 05 bb ee 3f fa ba 77 b1 ff b8 7e d9 fa ba
       -0.0020370346 -0.0019092539 -0.00012192403 -0.0019138304
0000e0 ea cc c9 3e 96 d6 ce b8 48 b3 26 3a 2b 33 07 3b
       0.3941415 -9.862815e-05 0.00063591124 0.0020629864
0000f0 37 01 d6 b9 21 72 7e b9 8d a7 d0 39 82 da 3e 38
       -0.00040818166 -0.00024265844 0.00039797687 4.550303e-05
000100 12 fb 05 bb 71 08 35 bb 83 89 0a ba 4e 03 53 3a
       -0.002044384 -0.002762344 -0.0005284773 0.00080495037
000110 11 5c 23 37 00 4b 73 b9 0c b6 d0 ba 70 a6 1c bb
       9.736993e-06 -0.00023202226 -0.0015923395 -0.0023902915
000120 47 28 9c 3b da ad 56 3b b2 52 a6 39 33 89 d4 3a
       0.0047655436 0.0032757432 0.000317236 0.0016215205
000130 86 9e c4 39 83 eb aa 3a 7b 3f a3 39 a4 98 38 b9
       0.00037502142 0.0013040159 0.0003113708 -0.0001760447
000140 97 f4 d4 37 eb d2 8f 38 a4 61 88 3a 0f 87 02 39
       2.5386265e-05 6.858058e-05 0.0010405076 0.0001244808
000150 29 13 da b9 24 b2 b7 b9 4b 17 3f ba e2 d7 37 b9
       -0.00041594476 -0.00035037205 -0.00072895427 -0.00017532663
000160 09 f3 45 bb b6 51 2e 3a b0 ea 30 ba 49 7d 0c bb
       -0.0030204675 0.0006649749 -0.00067488384 -0.002143698
000170 71 9d 84 b9 a0 9d bf 39 1e 49 d6 39 42 fa 93 39
       -0.00025294305 0.000365478 0.00040871737 0.00028224482
000180 75 3b 8d 38 96 89 c4 b8 0c fe d0 3e 15 13 77 39
       6.734479e-05 -9.371636e-05 0.40818822 0.00023562864
000190 a6 dc 0c 3f 20 8c 8b ba 81 7a 20 3e 98 da f4 39
       0.5502418 -0.0010646619 0.15671732 0.00046702172
0001a0 59 00 8b 3a 07 67 0b bf c8 55 b0 38 91 bc 86 b9
       0.0010604962 -0.5445408 8.408312e-05 -0.00025698965
0001b0 a9 ba 23 b8 51 54 a3 39 38 59 76 3b 37 c6 8d 3a
       -3.903607e-05 0.00031152603 0.00375898 0.0010816519
0001c0 37 5e c4 b9 13 5e 4c 3f 1a 3f 0f 3b bc b7 7b be
       -0.0003745423 0.79831046 0.002185768 -0.24581808
0001d0 4b 8d 1b 3a 9c 2b e8 39 a4 6a a2 bb cc a1 0e bb
       0.0005933835 0.0004428298 -0.00495656 -0.002176392
0001e0 88 5f c4 3a b7 22 84 ba 7e 9a 95 3a c8 2b ab b9
       0.0014982084 -0.0010081147 0.001141384 -0.0003264828
0001f0 c4 5a c2 b8 f9 60 b2 38 17 06 37 3a e6 20 22 39
       -9.267547e-05 8.505764e-05 0.00069818035 0.0001546178
000200 7c bf 7c 3a f5 31 34 3a 1e a1 7c ba 30 2d 7d ba
       0.00096415705 0.0006873899 -0.00096370454 -0.00096579175
000210 6d 83 c4 39 72 65 31 3a 74 1b 29 3a 66 c1 ae 37
       0.00037481953 0.00067671307 0.0006450929 2.0832475e-05
000220 73 f9 07 3a 4e b7 19 bd e4 83 68 3a d9 a6 8e 3a
       0.0005187012 -0.03752833 0.0008869751 0.0010883465
000230 c1 93 4d 3a d8 b6 14 ba 8f 59 06 ba d1 d8 f7 39
       0.00078421464 -0.0005672998 -0.00051250396 0.00047273052
000240 f5 a4 61 ba 0f 18 dc b9 47 7f 23 ba e3 7a 58 39
       -0.00086076494 -0.00041979595 -0.00062369223 0.00020645144
000250 e3 70 40 ba 6d 76 89 ba af b6 7c 3a 17 c7 0f ba
       -0.000734104 -0.0010487564 0.0009640259 -0.0005484684
000260 4a 06 91 ba 9e b3 3f ba 5e cc c9 39 47 04 e3 b9
       -0.0011064496 -0.0007312837 0.00038489973 -0.000433
000270 4f d7 fc 39 1a 70 c3 ba 89 34 0c ba e4 7c 2b 3a
       0.00048225603 -0.0014910728 -0.00053484045 0.00065417425
000280 11 31 17 3a a3 1e 80 ba ff 3e 08 3d 75 9c a2 3a
       0.00057675043 -0.0009774755 0.033263203 0.0012406247
000290 1b 32 a5 be 32 fe 7a 3a b9 45 ff 39 44 c0 58 39
       -0.3226479 0.0009574621 0.00048689338 0.0002067099
0002a0 fc e7 37 3a 5b 92 fd ba ef e7 43 ba 63 4c c4 b9
       0.00070154644 -0.0019345985 -0.00074732205 -0.00037440946
0002b0 be f1 20 3a 55 6e a7 b9 c8 78 3e b9 98 1c fa 39
       0.0006139538 -0.00031934926 -0.00018164807 0.0004770502
0002c0 4a b6 63 ba 73 09 f9 ba 9c 06 8f b9 48 fc 38 3a
       -0.0008686526 -0.0019000008 -0.0002728001 0.0007056636
0002d0 a1 c4 b7 b9 95 12 c0 b9 e6 6f a4 b9 f8 1d bb b9
       -0.0003505098 -0.00036634938 -0.00031363888 -0.00035689748
0002e0 2a 6c 3c 3f 45 0a c9 38 6a 01 1a 3a 88 3c b2 39
       0.73602545 9.58634e-05 0.00058748445 0.00033995905
0002f0 9e c6 95 3a 26 eb 42 ba 35 51 7c ba ff 51 00 3a
       0.001142699 -0.00074355525 -0.0009625138 0.0004895031
000300 ee 6e ab b9 65 45 01 3b 2f 0e 3d ba f5 e3 67 ba
       -0.0003269831 0.00197252 -0.00072118914 -0.0008845919
000310 24 73 67 3a fa 23 70 3a c1 c1 9c 3a ad e3 8e b6
       0.0008829108 0.00091606344 0.0011959599 -4.2584347e-06
000320 85 43 9e ba 0a a7 41 ba 33 1c 53 ba 78 6e ee 39
       -0.0012074566 -0.00073872565 -0.0008053213 0.00045477203
000330 fb b2 59 3a a1 ff 04 bb cc cb c9 39 6f 92 16 ba
       0.0008304563 -0.0020293968 0.00038489548 -0.0005743866
000340 3e dc e3 b9 72 27 d9 39 b0 88 35 3a d6 93 99 ba
       -0.00043460907 0.00041418854 0.000692497 -0.0011717032
000350 19 46 7f 3a 95 b5 37 ba 6a e3 ab 38 1d 55 54 39
       0.00097379234 -0.0007007954 8.1962746e-05 0.00020249603
000360 50 85 2f 3a 86 00 9d ba 74 3e 9c 39 68 c3 2d 3a
       0.00066955853 -0.0011978305 0.0002980117 0.0006628544
000370 85 25 2a ba 57 fb 9c ba 15 1c 32 3a 1e 30 ea b7
       -0.0006490576 -0.001197676 0.00067943457 -2.791738e-05
000380 c9 1b 25 ba f9 00 64 ba ed 62 01 3f e4 b5 6a ba
       -0.0006298391 -0.00086976547 0.50541574 -0.00089534954
000390 fa 7d 08 3f 6f f0 13 ba a3 e1 3e 3e 38 af 26 3a
       0.53317225 -0.00056434324 0.18640761 0.0006358507
0003a0 c9 f3 a7 3a a8 77 0a bf fd 94 17 ba 64 25 33 ba
       0.0012813743 -0.5408883 -0.0005782394 -0.000683388
0003b0 83 e4 43 3a e4 2f 80 ba cc ba fa 37 93 89 68 ba
       0.00074727106 -0.0009779898 2.9889306e-05 -0.0008870598
0003c0 b4 e9 71 3a 03 d9 3a 3f ca 48 be 39 7e 41 3f 3e
       0.0009228245 0.72987384 0.00036293856 0.18677327
0003d0 17 71 04 3a b3 11 7b ba b9 d6 9a 3a 11 1d bb b9
       0.0005052252 -0.00095775275 0.001181326 -0.00035689076
0003e0 9f 8e ca 39 53 63 09 ba 7f b2 f3 39 0e 51 8e 3a
       0.00038634703 -0.0005240936 0.00046481562 0.0010857896
0003f0 90 3a 6c ba 7c d9 7e 39 a9 56 51 ba f5 1e 5c ba
       -0.0009011412 0.00024304347 -0.00079856307 -0.0008396947
