classification/LSTM/model_save/LSTMmodel_tlstage16.pth (torch_old, 5949 bytes, 5 tensors)

lstm.weight_ih_l0 f4 [64, 1]
-0.011896398 0.112874076 -0.0031658076 -0.002169956 0.433382 0.15195103 1.3505092 -0.0103302365
0.59999526 0.7040197 -0.0034550491 0.3394881 0.20722064 0.6036502 -0.001507627 -0.0073141837
-0.009993765 1.0019188 -0.00262019 -0.0019549897 0.65052426 0.78957576 0.13009247 -0.008051652
-0.34484822 -0.0032236022 -0.0028310332 0.76616466 0.31435877 0.70483667 -0.0023005211 -0.0055845375
0.00043329768 0.0008780345 0.0021899587 -0.005222412 -0.45638087 -1.3124381 -2.40558 -0.0014246393
1.0135937 1.210997 -0.002756324 -1.5802951 -0.30193192 -1.4382186 -0.038152333 -5.9200014e-05
-0.011830319 2.1499596 -0.0032474904 -0.0021090056 0.4665163 0.9145971 0.32868046 -0.0102886865
0.5297246 -0.14388636 -0.0036010419 -0.8959754 0.09377552 -0.016165111 -0.0014317825 -0.007238078
00000000: 1ce9 42bc 862a e73d 7079 4fbb d235 0ebb
00000010: 3fe4 dd3e 0d99 1b3e 7cdd ac3f 2740 29bc
00000020: 4a99 193f a33a 343f 1b6e 62bb 62d1 ad3e
00000030: a631 543e d288 1a3f 919b c5ba d2ab efbb
00000040: e3bc 23bc e03e 803f 7eb7 2bbb 491f 00bb
00000050: c288 263f a321 4a3f f636 053e 14eb 03bc
00000060: f28f b0be 1243 53bb db88 39bb 5e23 443f
00000070: a2f3 a03e 2d70 343f 57c4 16bb 7ffe b6bb
00000080: 3b2c e339 e62b 663a 6985 0f3b c420 abbb
00000090: c1aa e9be f9fd a7bf 06f5 19c0 f6ba baba
000000a0: 70bd 813f f301 9b3f 71a3 34bb 1c47 cabf
000000b0: d296 9abe 8c17 b8bf 9f45 1cbd 884d 78b8
000000c0: f4d3 41bc f098 0940 d9d3 54bb 3e37 0abb
000000d0: 39db ee3e 0923 6a3f ce48 a83e e191 28bc
000000e0: 089c 073f f256 13be 75ff 6bbb a55e 65bf
000000f0: 610d c03d b26c 84bc a6aa bbba 662d edbb

lstm.weight_hh_l0 f4 [64, 16]
0.00044640314 -0.0009614275 -0.000108325345 -0.00030508675 0.0069290525 0.0018545799 -0.0002313135 0.00014153376
-0.0006296011 -0.0060359184 0.00022089799 0.0037418914 0.0016625795 0.006611428 -0.0001856744 6.6573106e-05
-0.00013958024 0.3676518 -0.0023671295 -0.00014486827 0.07319774 -0.99726045 1.1650254 -0.0004364174
-0.28495768 -0.7111553 0.006948841 0.40962055 -0.22554336 0.6517913 -0.00018676712 0.004514912
0.00012046552 -0.0010006643 -0.00014446082 -0.0001939395 0.002164956 0.0011484065 -0.0007015561 1.8666018e-05
-6.798619e-05 -0.0021404203 0.0001576368 0.0022029523 0.0012046739 0.0023370634 -1.627023e-05 -2.1115504e-05
0.00014421542 -0.0005436151 -5.296326e-05 -9.7569595e-05 0.0013031912 9.996882e-05 0.0010101447 6.5469045e-05
-0.0003162896 -0.0010268782 9.2310125e-05 0.0010673525 0.0005498511 0.0013410072 4.92534e-06 -3.553399e-05
0.00031193055 0.038193766 0.0011492689 -0.00074288546 -0.158367 -0.061872642 0.061660767 0.0006762502
-0.028527608 0.032138947 -0.0017098442 -0.097088724 -0.05487275 -0.050111566 0.00078540505 -0.0011124301
0.00089545606 -1.1098704 -0.0011091591 0.0049184156 0.034467965 -0.6970088 -0.6477708 0.0010552227
0.07874055 0.3200503 -0.0018190662 1.7725638 -0.09110788 0.5389275 0.027040085 -0.0030309602
-0.0063545783 0.2273606 0.0010658831 -0.00088756985 0.24572179 -0.0025099488 -0.60214394 -0.0050657615
-0.05864471 0.62523544 0.0048500574 -0.92536986 0.08634429 -0.10711273 -0.0057938867 0.0077379597
0.00019293219 -0.0006040158 -2.2047469e-05 -0.00012460213 0.004536295 0.0012760866 -0.00028693222 8.95162e-05
-0.00014746175 -0.0037397367 0.00010851333 0.0023184465 0.001126486 0.004251636 -0.00011688111 -0.00010867449
0.000358205 0.08998714 0.0010962267 -0.0039865654 -0.02737778 0.00861703 -1.1644628 -1.7989512e-05
0.039827734 0.12960954 0.0018506208 -0.32937655 -0.070199765 -0.034949675 -0.001712257 0.0019243127
0.0010002617 0.024768632 -0.0019320911 0.0013014486 -0.045872398 -0.4624684 -0.6768074 -0.00059518754
0.0018898326 0.007081239 0.00090204796 0.57527745 -0.050224576 0.09381082 -0.0065689036 -0.00022074537
-3.2085634e-05 -0.00088779535 -0.00011202937 -0.00014788813 0.0015248068 0.0009006645 0.00025556676 -4.107824e-05
-0.0006116957 -0.0016018947 1.4010326e-05 0.0021005457 0.0006804658 0.001831257 -0.000121070734 -4.1897397e-06
0.0006352596 -0.012678052 -0.0010864032 -6.1996514e-05 -0.040630873 -0.64880496 -0.23694022 -0.0030870596
0.16582519 -0.51639235 0.0011307553 -0.2550754 -0.13267292 0.28986323 0.007897162 0.0017527428
0.0007787559 0.04266742 0.00014786063 -0.00127231 -0.09040332 -0.07322871 0.09528877 0.00053433183
-0.03568242 0.0026386513 -0.0006289469 -0.0591957 -0.043565013 0.006808922 0.0031788973 -0.00042904922
0.005623471 0.08669519 -0.002707379 -0.0002173823 -0.098216504 0.10545101 -0.20593357 0.005249894
-0.016751656 0.15940265 0.0012765024 0.0749064 0.037591144 -0.026132843 -0.00053646613 -0.0037861734
-4.933873e-05 -0.0005927168 6.670199e-05 -4.3161708e-05 0.0009868265 0.0011157934 -0.0001263499 2.0430643e-06
-0.0012308108 0.00041336482 -9.569111e-05 0.0011848549 0.00087797764 0.0007926281 -4.5304587e-05 9.738591e-06
-6.515505e-05 -0.0001664627 -1.24893595e-05 1.1356355e-05 0.0023116427 0.0002435965 9.8249526e-05 6.072696e-05
1.3469242e-05 -0.0018211554 2.4898876e-05 0.0007977342 0.00033472088 0.0021795086 -3.2823347e-05 -2.9938434e-05
00000000: 370b ea39 4f08 7cba ba2c e3b8 0df4 9fb9
00000010: 1b0d e33b 6015 f33a bf8c 72b9 ae68 1439
00000020: d10b 25ba f4c8 c5bb daa0 6739 853a 753b
00000030: e9ea d93a aea4 d83b 98b1 42b9 2a9d 8b38
00000040: 495c 12b9 db3c bc3e d821 1bbb c8e7 17b9
00000050: b2e8 953d 764c 7fbf 8d1f 953f f4ce e4b9
00000060: f9e5 91be 460e 36bf 1ab3 e33b c9b9 d13e
00000070: d7f4 66be cbdb 263f ebd6 43b9 d4f1 933b
00000080: 6fa2 fc38 b928 83ba 687a 17b9 3d5c 4bb9
00000090: efe1 0d3b 2186 963a a2e8 37ba f894 9c37
000000a0: cf93 8eb8 4b46 0cbb 4e4b 2539 685f 103b
000000b0: 26e6 9d3a 6b29 193b 0e7c 88b7 3321 b1b7
000000c0: 8838 1739 6481 0eba de24 5eb8 479e ccb8
000000d0: d7cf aa3a 5aa6 d138 d566 843a 6d4c 8938
000000e0: acd3 a5b9 5198 86ba 9f96 c138 68e6 8b3a
000000f0: e223 103a bcc4 af3a 5944 a536 550a 15b8
00000100: 9c8a a339 1171 1c3d 11a3 963a 33be 42ba
00000110: f52a 22be 2b6e 7dbd 0090 7c3d 6246 313a
00000120: bbb2 e9bc 21a4 033d da1c e0ba 74d6 c6bd
00000130: 40c2 60bd c941 4dbd a4e3 4d3a f6ce 91ba
00000140: 0abd 6a3a 3c10 8ebf 3461 91ba a92a a13b
00000150: 482e 0d3d 2b6f 32bf 4fd4 25bf 664f 8a3a
00000160: ba42 a13d a2dd a33e bc6d eeba 5fe3 e23f
00000170: c596 babd 27f7 093f 2b83 dd3c 13a3 46bb
00000180: 113a d0bb 38d1 683e 1ab5 8b3a ceab 68ba
00000190: 7e9e 7b3e f47d 24bb 1b26 1abf b0fe a5bb
000001a0: 6f35 70bd 6e0f 203f 3bed 9e3b 0ae5 6cbf
000001b0: 46d5 b03d eb5d dbbd a5da bdbb b68e fd3b
000001c0: d74d 4a39 d056 1eba 94f2 b8b7 a1a7 02b9
000001d0: 33a5 943b 5c42 a73a 646f 96b9 a5ba bb38
000001e0: f69f 1ab9 5f16 75bb a791 e338 14f1 173b
000001f0: 99a6 933a 4f51 8b3b 111e f5b8 2ce8 e3b8
00000200: 76cd bb39 2d4b b83d 44af 8f3a bca1 82bb
00000210: 5e47 e0bc 722e 0d3c 1e0d 95bf 2fe8 96b7
00000220: 6822 233d 5db8 043e 8890 f23a 0ba4 a8be
00000230: e5c4 8fbd 6427 0fbd d06d e0ba 3839 fc3a
00000240: 371b 833a 96e7 ca3c 383e fdba 5e95 aa3a
00000250: b2e4 3bbd a8c8 ecbe 4043 2dbf 5c06 1cba
00000260: 42b4 f73a bd09 e83b 6a77 6c3a 6245 133f
00000270: 49b8 4dbd e31f c03d f53f d7bb e277 67b9
00000280: b093 06b8 f0ba 68ba 4ff1 eab8 6b12 1bb9
00000290: 07dc c73a 921a 6c3a 97fd 8539 6d4b 2cb8
000002a0: 345a 20ba abf6 d1ba e40d 6b37 4fa9 093b
000002b0: 4961 323a ca06 f03a 5be7 fdb8 9795 8cb6
000002c0: 8d87 263a 9bb7 4fbc a465 8eba 2004 82b8
000002d0: 8f6c 26bd 1518 26bf 75a0 72be 4450 4abb
000002e0: 14ce 293e 4a32 04bf da35 943a 3e99 82be
000002f0: 69db 07be f468 943e 1963 013c 4abc e53a
00000300: 6c25 4c3a 08c4 2e3d 090b 1b39 a4c3 a6ba
00000310: 6025 b9bd eff8 95bd c226 c33d 6712 0c3a
00000320: bb27 12bd 39ed 2c3b e9df 24ba 3177 72bd
00000330: 3a71 32bd 611d df3b 0c55 503b 03f2 e0b9
00000340: 1845 b83b 3f8d b13d 486e 31bb 1ef1 63b9
00000350: bc25 c9bd b3f6 d73d 40e0 52be 4e07 ac3b
00000360: c53a 89bc 733a 233e 5050 a73a 8768 993d
00000370: 2cf9 193d 8b14 d6bc a2a1 0cba 7321 78bb
00000380: 0ff1 4eb8 8d60 1bba 5ce2 8b38 8808 35b8
00000390: 6758 813a d03f 923a cb7c 04b9 941b 0936
000003a0: 2853 a1ba e3b8 d839 c6ad c8b8 224d 9b3a
000003b0: 1528 663a 5fc8 4f3a 6e05 3eb8 ee62 2337
000003c0: daa3 88b8 7e8c 2eb9 6489 51b7 2c87 3e37
000003d0: ee7e 173b f06d 7f39 500b ce38 14b5 7e38
000003e0: f4f9 6137 d6b3 eeba eedd d037 091f 513a
000003f0: 7a7d af39 16d6 0e3b cdab 09b8 4c24 fbb7

lstm.bias_ih_l0 f4 [64]
-0.013278637 -0.27427965 -0.0032715492 -0.0022978978 0.23507398 0.16288665 0.38158223 -0.012176522
0.3438597 0.2672492 -0.0033424092 0.5319559 0.27967313 0.37285528 -0.0020165495 -0.008772342
-0.011020959 0.41287094 -0.0026332382 -0.0020605477 0.48056278 -0.15953398 -0.42886958 -0.009298564
-0.37947813 0.029126495 -0.0026897627 -0.056574292 0.37419617 0.4872781 -0.0024198943 -0.0066217575
0.0018261566 -0.07615704 -0.0034233215 0.001905031 -0.38972548 0.0119812 1.012154 0.0043045375
-0.57940626 -0.20855573 0.0023472253 0.6697865 -0.41901755 0.36595422 -0.000999482 -0.002274479
-0.013280515 -0.9105763 -0.0032713977 -0.002297537 -0.1372668 0.50007874 0.3326992 -0.01217986
-0.09835135 0.03630076 -0.0033431891 0.2741641 -0.7242755 0.046718407 -0.0020140498 -0.008774113
00000000: a48e 59bc 626e 8cbe 7d67 56bb 5498 16bb
00000010: 3cb7 703e c2cb 263e bf5e c33e 0980 47bc
00000020: 610e b03e e3d4 883e 520c 5bbb 432e 083f
00000030: 5131 8f3e e3e6 be3e 1628 04bb deb9 0fbc
00000040: 4191 34bc d263 d33e 6892 2cbb 410a 07bb
00000050: 530c f63e e05c 23be cb94 dbbe 0159 18bc
00000060: f54a c2be b09a ee3c bb46 30bb 72ba 67bd
00000070: a496 bf3e 847c f93e 1797 1ebb 54fb d8bb
00000080: a65b ef3a 39f8 9bbd ce59 60bb 3cb2 f93a
00000090: 198a c7be cc4c 443c 438e 813f 140d 8d3b
000000a0: f853 14bf a28f 55be e8d3 193b 2177 2b3f
000000b0: 7889 d6be 5a5e bb3e 0d01 83ba 6d0f 15bb
000000c0: 8496 59bc 871b 69bf f264 56bb 4692 16bb
000000d0: ab8f 0cbe 2905 003f 8d57 aa3e 098e 47bc
000000e0: 6f6c c9bd 1bb0 143d 6819 5bbb 3d5f 8c3e
000000f0: 1f6a 39bf cd5b 3f3d 26fe 03bb 4cc1 0fbc

lstm.bias_hh_l0 f4 [64]
-0.013278637 -0.3083278 -0.0032715492 -0.0022978978 0.22834209 0.2298951 0.42305157 -0.012176522
0.3418028 0.35511175 -0.0033424092 0.62174946 0.27884713 0.32998958 -0.0020165495 -0.008772342
-0.011020959 0.41902688 -0.0026332382 -0.0020605477 0.49285972 -0.29508743 -0.4012623 -0.009298564
-0.3800016 -0.09336421 -0.0026897627 -0.07475711 0.377435 0.4371745 -0.0024198943 -0.0066217575
0.0077951495 -0.0050906925 -0.0033829606 0.0023962518 -0.41354266 0.15231845 0.85341966 0.004936142
-0.39270574 0.08955519 0.0069119823 0.5281076 -0.41889662 0.42160684 0.024630493 -0.00072298845
-0.013280515 -0.90909994 -0.0032713977 -0.002297537 -0.029434897 0.50986904 0.28904942 -0.01217986
-0.15563709 0.1959303 -0.0033431891 0.5087214 -0.7002001 0.043968696 -0.0020140498 -0.008774113
00000000: a48e 59bc 24dd 9dbe 7d67 56bb 5498 16bb
00000010: 82d2 693e 9f69 6b3e 379a d83e 0980 47bc
00000020: c700 af3e 35d1 b53e 520c 5bbb f92a 1f3f
00000030: 0dc5 8e3e 65f4 a83e 1628 04bb deb9 0fbc
00000040: 4191 34bc b18a d63e 6892 2cbb 410a 07bb
00000050: 1c58 fc3e b315 97be 4172 cdbe 0159 18bc
00000060: 928f c2be bc35 bfbd bb46 30bb 411a 99bd
00000070: 293f c13e 56d5 df3e 1797 1ebb 54fb d8bb
00000080: 746e ff3b d3cf a6bb a9b4 5dbb 6f0a 1d3b
00000090: ddbb d3be 5ef9 1b3e b679 5a3f 5cbf a13b
000000a0: ba10 c9be b668 b73d e97d e23b 0f32 073f
000000b0: 9e79 d6be dadc d73e e3c5 c93c ef86 3dba
000000c0: 8496 59bc c6ba 68bf f264 56bb 4692 16bb
000000d0: 7421 f1bc c786 023f 49fe 933e 098e 47bc
000000e0: 545f 1fbe f4a1 483e 6819 5bbb 913b 023f
000000f0: 5040 33bf 8518 343d 26fe 03bb 4cc1 0fbc

linear.weight f4 [3, 16]
-0.0035846848 -0.30174348 0.0020949778 -0.000525515 -0.7698441 -0.11297191 -0.28833902 -0.0032325624
0.27016178 0.68959445 -0.0024824012 -0.34412417 -0.33489147 -0.7376674 0.0016489655 0.0013947497
0.0012041299 -0.41113788 -0.00072529336 -0.0027545434 -0.8114104 -0.09258028 -0.3171988 0.0011636786
0.2533542 0.5495906 0.0017501613 -0.49663308 -0.6255756 -0.63365006 0.00028530115 0.00050984416
-0.00052734045 -0.61709756 -3.8606075e-05 -0.00022461874 -0.82363003 -0.03826795 -0.31522164 -0.00061041093
0.30539042 0.27463523 -0.0013214921 -0.69765294 -0.8781153 -0.65264136 -0.0016778893 -0.00029891232
00000000: 08ed 6abb 1f7e 9abe e54b 093b b7c2 09ba
00000010: 8114 45bf d15d e7bd 2ca1 93be 66d9 53bb
00000020: a552 8a3e 4389 303f c8af 22bb 0b31 b0be
00000030: e576 abbe c5d7 3cbf 1a22 d83a 09d0 b63a
00000040: e5d3 9d3a aa80 d2be 9d21 3eba 9285 34bb
00000050: 98b8 4fbf bb9a bdbd e267 a2be 9386 983a
00000060: a4b7 813e f8b1 0c3f ab65 e53a b146 febe
00000070: b925 20bf e436 22bf 7994 9539 10a7 053a
00000080: 383d 0aba 1bfa 1dbf f5ec 21b8 a287 6bb9
00000090: 6bd9 52bf dbbe 1cbd bb64 a1be fc03 20ba
000000a0: 225c 9c3e fd9c 8c3e eb35 adba 6299 32bf
000000b0: 2acc 60bf 8113 27bf 9fec dbba 55b7 9cb9
