classification/LSTM/model_save/LSTMmodel_tlstage32.pth (torch_old, 19197 bytes, 5 tensors)

lstm.weight_ih_l0 f4 [128, 1]
00000000: f1b9 2c3f 1471 80bb 1c25 a3bb d177 ae3d
00000010: 97e4 73bb e2b1 d6bb a9c2 29bb 2d41 e2ba
00000020: 57d0 95bb 67d3 cbbb 33a6 efbe 1a40 343f
00000030: 45a9 c7bb b3a2 89bb c419 c9bb 8a1f 453f
00000040: 3ff6 c9bb 5607 523f bc5d 123f 3250 e6ba
00000050: c348 f8ba b19f 03bb fb09 6bbb fb87 91bb
00000060: ae2f 0cbb e85e aebb 5ac4 2abb ba2d 28bb
00000070: a127 aabe 7353 48bf ca36 f1ba 0b8b 1cbb
00000080: 6dbc 41be 8007 66bb f5b4 8abb 77f0 273c
00000090: 3986 3ebb c2dc c1bb 18dc 11bb 88d8 b0ba
000000a0: 3575 7abb 8da1 b3bb 1755 6fbe 530d c73d
000000b0: eecc b3bb 1203 76bb 456a b0bb 2214 c7be
000000c0: ab3f b6bb 1343 f43b 53ed 6a3f 3edd adba
000000d0: daa4 c7ba 29a3 c7ba 77f2 3fbb b24b 83bb
000000e0: d8c0 d5ba 5652 95bb df02 06bb 0886 0fbb
000000f0: 8654 7dbf e79f 5bbf 81c2 b6ba 39a8 03bb
00000100: 5e55 ecbf 662b 193a 7d59 1c3b acf7 debe
00000110: 758c 16bb 7f9b 0c3c 401e 9ab9 dd2b a3ba
00000120: 308b 09bb 7801 84ba e5ec 82bf 684b bb3f
00000130: 7236 453a 5225 23b9 d6f7 023b 93dd c73f
00000140: c48e 01bb af4b 06c0 bd6a f6bf 7813 e4ba
00000150: 1453 d7b8 e4da cf3a 791a 183b b6dc fcba
00000160: 7f08 053b 07ea 22bb ff20 f13a 819c 23b9
00000170: 5551 e4bf 378f a53e d861 793a 0448 2839
00000180: 5719 3f3f bd67 83bb b50a a8bb ff98 013e
00000190: e0dd 7fbb 351f dabb c594 2ebb 84d5 eaba
000001a0: 11d7 9abb b18d d1bb 4984 4bbf ac09 403e
000001b0: 1799 ccbb d202 8dbb 3fab cebb c554 a03e
000001c0: 91b8 cebb cb5c d93b 04bd 603f 83d1 efba
000001d0: 2dc4 00bb bb24 09bb d20d 73bb 68b6 94bb
000001e0: 57d9 11bb e28c b3bb 9c88 31bb 0610 2dbb
000001f0: 55c3 59bf da90 61be 7458 fbba de6b 21bb
0.67471224 -0.00391973 -0.004978789 0.08518947 -0.0037215108 -0.006551967 -0.002590338 -0.0017261856
-0.004571955 -0.0062202695 -0.46806487 0.7041031 -0.0060931765 -0.0042003035 -0.0061371047 0.7700125
-0.006163388 0.82042444 0.5717428 -0.0017571507 -0.0018942583 -0.0020084197 -0.0035864103 -0.004441259
-0.0021390724 -0.0053213723 -0.0026056976 -0.002566202 -0.3323336 -0.78252333 -0.0018403169 -0.0023886587
-0.18919535 -0.0035099685 -0.0042329975 0.010250202 -0.0029071702 -0.005916209 -0.002225643 -0.0013492266
-0.0038216833 -0.005481905 -0.23372303 0.09719338 -0.005487076 -0.003753845 -0.005383762 -0.38882548
-0.005561789 0.007454285 0.9176838 -0.0013264788 -0.0015231625 -0.0015231121 -0.0029288807 -0.0040068263
-0.0016308082 -0.0045569343 -0.0020448489 -0.0021899957 -0.989571 -0.85790867 -0.0013943465 -0.0020089282
-1.8463552 0.00058429537 0.002385705 -0.43548334 -0.0022971903 0.008581995 -0.00029395707 -0.0012448985
-0.0020987503 -0.0010071239 -1.0228544 1.4632387 0.00075230666 -0.00015558794 0.0019984148 1.5614494
-0.0019768933 -2.0983694 -1.9251324 -0.0017400822 -0.000102674734 0.0015858081 0.0023209138 -0.0019291851
0.0020299254 -0.002485873 0.0018396674 -0.00015603194 -1.783732 0.32335827 0.0009513176 0.00016048556
0.7464804 -0.0040101693 -0.0051282295 0.1265602 -0.003904216 -0.006656552 -0.0026638967 -0.0017916416
-0.004725345 -0.0063950648 -0.79498726 0.1875369 -0.0062438357 -0.0043033147 -0.006307035 0.31314674
-0.006308623 0.0066333762 0.87788415 -0.0018296692 -0.001964818 -0.0020926434 -0.0037087095 -0.004538346
-0.0022254789 -0.005479441 -0.0027089482 -0.0026407256 -0.8506368 -0.22027913 -0.0019176141 -0.0024630944

lstm.weight_hh_l0 f4 [128, 32]
00000000: bcec 0fbf 97d0 4d3b 14e2 b9b9 e647 96bd
00000010: b9b1 23bb 074f 453b 5054 523b f0ca 4a3b
00000020: d0b3 773a 4ba8 37ba 6041 1d3c e146 443e
00000030: ebd5 013b 40db 323b d349 293a c694 573f
00000040: 76d9 00bb dcd4 bc3d c7dd c83e 0c9c 363b
00000050: 7b27 5e3b e8ca 39bb 19ca b1ba 7e04 47bb
00000060: ee93 1abb 5aaa 4d39 93ab 05bb 620b 69bb
00000070: b026 bdbe 2538 f03e 9843 48bb 4662 69bb
00000080: 5b27 65ba 5874 b9b7 1131 abb7 69bf 0039
00000090: 454b 3737 0684 ac37 9743 e0b6 f9ea a837
000000a0: c940 b537 2bea e2b7 b593 d639 9b06 d539
000000b0: 74ff 2037 5cd7 b9b7 18d1 c237 84fb 4f3a
000000c0: 4da4 98b7 1d87 c3ba 840e 7c3b 2717 5937
000000d0: 83f5 6d37 390b 1db7 9224 c735 6417 ac37
000000e0: 257d ccb5 5616 5837 316a 8737 3dc3 5136
000000f0: ba66 d637 4aa6 06b9 119b 89b7 6d7a 2fb6
00000100: 3028 f8b9 bac6 c337 e58b 5939 7795 2b39
00000110: ae1a 5139 9406 3239 08b0 5db7 f098 9bb6
00000120: 4fe0 5eb9 4107 41b9 165d c738 79d8 c8b9
00000130: f609 1639 61c1 3938 dd42 4639 f739 6538
00000140: fa95 21b9 91c2 a9ba 4d8d a43b fa53 87b7
00000150: acd5 4535 33a2 ed37 c8cc 5139 698f 86b8
00000160: 3d32 ae38 9f20 57b9 67e1 2239 3255 d336
00000170: 0513 f439 7d5c 4a3a 8051 3737 5586 b1b1
00000180: 78a8 47bc 07a9 4aba bee8 593a e1b3 a6bc
00000190: 6326 883a 2987 9339 743e 88ba 7f24 a4ba
000001a0: 31de 73ba fd0e bab9 9839 95bc 9f5b 60bd
000001b0: 48ec 46b9 45ac 3eba b35d e639 0e5c 0a3d
000001c0: 356a 4338 c146 933d 5fef eebd d2d2 a9ba
000001d0: c867 9aba 5027 ad3a 8ccf 8d3a 4e5f 1d3a
000001e0: e541 a63a 5f3c 49ba d95f 993a c66a 8e3a
000001f0: 63fd dcbc 3ea9 ff3c e5e2 ab3a 8d39 953a
00000200: 5217 b0b8 0341 8d36 03a0 7439 2fba d438
00000210: 3d54 7339 aa1a 0639 6341 5937 e681 6f35
00000220: 92fa 7bb9 05ef 3cb9 c22e 5038 499f e3b9
00000230: 5d2f 8d38 842e 1fb6 7357 4939 c71c e3b9
00000240: 331e c0b8 3d5b 0dba 6c2b 663b ecc5 98b8
00000250: ac0c 5637 41ba e038 84ab 7339 c719 9236
00000260: b113 2839 d5ea 70b9 967d 5339 ca8b 75b7
00000270: 25bf 7a39 7040 343a a806 4d38 aadb 75b7
00000280: 08e5 82ba a555 fb36 0509 c738 566d 0539
00000290: 840a 2738 9809 a7b7 9f83 2d38 9851 b7b7
000002a0: 5867 c8b8 8dd8 fdb7 e3cd 9739 b393 bab9
000002b0: c1a4 d0b7 c7d4 59b6 212c 2738 70a4 453a
000002c0: 7396 9137 95a2 0abb 726a df3b 2b7a 00b7
000002d0: 4839 4bb6 e599 c036 5f81 5a38 d68d 4237
000002e0: 6ac9 e1b6 1df3 b7b8 284b abb6 bbf0 26b8
000002f0: fbe4 593a 6539 283a f668 2d37 e498 0ab8
00000300: 116c e3b9 6cab f235 fb33 cbb7 36cf 1538
00000310: 82ad d5b7 005d 8337 9249 86b7 ca4b 6bb7
00000320: ed15 cd37 5714 6237 e5a5 a739 8012 8139
00000330: 8373 c537 7621 bf36 4391 92b7 bda1 af39
00000340: eaff 9fb7 375f 55ba 88b1 1d3b 4b88 89b6
00000350: d943 91b7 95d5 5eb6 3a2d d8b7 95ad 44b7
00000360: e8c7 2fb7 70ff cc37 a0d7 b2b7 3586 8837
00000370: efa1 84b7 310f dcb8 d61f ab36 b606 9137
00000380: b2f9 1738 3fcd d337 6786 adb6 9fa6 02b8
00000390: f3ac 2238 c5b7 07b8 f59e 58b7 bb99 7ab8
000003a0: 4e3d dab6 012c 2138 6e60 5739 0b3f 0db9
000003b0: bdaa 82b7 6aed da37 4ab5 14b8 7b0c 7ab9
000003c0: 2aa2 e137 e90f 20b9 818d c23a 650c 9fb8
000003d0: 8dbb 3fb8 d2be a638 d1c0 1c38 dd71 cab7
000003e0: fdb7 a638 e5e0 2c37 c655 8d38 6a03 9d37
000003f0: 40d4 bd38 f205 2139 ce9c 9938 2fa1 e837
-0.56220603 0.0031404847 -0.0003545439 -0.07337932 -0.0024977757 0.0030106918 0.0032093711 0.0030943714
0.00094490964 -0.00070059736 0.009598106 0.19167663 0.0019811343 0.0027291328 0.0006457839 0.84211385
-0.0019660867 0.09220287 0.39231703 0.0027864007 0.0033898044 -0.0028349701 -0.0013564258 -0.0030367668
-0.0023586708 0.00019613784 -0.0020396456 -0.0035559763 -0.3694358 0.46917835 -0.0030557867 -0.0035611554
-0.0008741521 -2.2107895e-05 -2.0407637e-05 0.00012278337 1.0925175e-05 2.0565476e-05 -6.6835887e-06 2.0136578e-05
2.160705e-05 -2.7050342e-05 0.0004092731 0.00040631447 9.5962205e-06 -2.2154003e-05 2.3223969e-05 0.0007933902
-1.819632e-05 -0.0014917586 0.00384608 1.29395985e-05 1.41834635e-05 -9.360542e-06 1.4837299e-06 2.051489e-05
-1.5235606e-06 1.2879804e-05 1.6142703e-05 3.125707e-06 2.5558624e-05 -0.00012841183 -1.6403881e-05 -2.6148293e-06
-0.00047332188 2.333835e-05 0.00020746847 0.00016363511 0.00019941732 0.00016977853 -1.3213612e-05 -4.6371642e-06
-0.00021255131 -0.00018408617 9.506398e-05 -0.00038308257 0.00014308825 4.4287535e-05 0.0001890766 5.465184e-05
-0.00015410027 -0.0012951662 0.005021727 -1.6132359e-05 7.369915e-07 2.8328132e-05 0.0002000808 -6.41633e-05
8.306324e-05 -0.0002051615 0.00015533493 6.298208e-06 0.00046553477 0.00077194703 1.0926626e-05 -5.1666498e-09
-0.012186162 -0.00077308755 0.00083125744 -0.020349445 0.0010387417 0.00028138727 -0.0010394589 -0.0012523084
-0.00093028235 -0.00035487852 -0.01821594 -0.054774877 -0.00018970773 -0.0007273595 0.0004393883 0.033779196
4.6590536e-05 0.071912296 -0.1166675 -0.0012956506 -0.0011780197 0.0013210569 0.00108193 0.0006003276
0.0012684433 -0.00076765375 0.0011701538 0.0010865561 -0.026976293 0.03120863 0.0013113884 0.0011384949
-8.396678e-05 4.209696e-06 0.00023329262 0.00010143627 0.00023205667 0.00012789169 1.2949432e-05 8.9223465e-07
-0.0002403057 -0.00018018119 4.963461e-05 -0.0004341549 6.732226e-05 -2.3719922e-06 0.00019201431 -0.00043318255
-9.1608985e-05 -0.00053923187 0.0035121096 -7.2847906e-05 1.2758344e-05 0.00010715845 0.0002323818 4.35414e-06
0.00016029064 -0.00022975665 0.00020169312 -1.4635685e-05 0.00023913065 0.0006876057 4.8882008e-05 -1.46542825e-05
-0.000998647 7.4903533e-06 9.4907395e-05 0.00012724599 3.9825696e-05 -1.9912419e-05 4.1368996e-05 -2.1853295e-05
-9.5559924e-05 -3.026079e-05 0.00028954362 -0.0003558673 -2.4872252e-05 -3.2459373e-06 3.9857e-05 0.0007539457
1.7355405e-05 -0.0021154035 0.006818109 -7.657839e-06 -3.02827e-06 5.7399616e-06 5.2095736e-05 1.1596325e-05
-6.72897e-06 -8.7714034e-05 -5.1049465e-06 -3.9801682e-05 0.0008312014 0.0006417244 1.0336042e-05 -3.3044154e-05
-0.0004337733 1.8080295e-06 -2.4223691e-05 3.571735e-05 -2.5472375e-05 1.5659723e-05 -1.6008304e-05 -1.40247375e-05
2.4448114e-05 1.34753855e-05 0.00031976323 0.0002461858 2.353802e-05 5.696139e-06 -1.7472199e-05 0.00033499105
-1.9073446e-05 -0.00081394933 0.0024062116 -4.0987848e-06 -1.7316941e-05 -3.32049e-06 -2.5770267e-05 -1.1722926e-05
-1.0477357e-05 2.4437642e-05 -2.1319662e-05 1.6274958e-05 -1.5811032e-05 -0.00010493247 5.0999033e-06 1.7288472e-05
3.6233752e-05 2.5248735e-05 -5.1714483e-06 -3.1149593e-05 3.878488e-05 -3.2357657e-05 -1.2911613e-05 -5.9747817e-05
-6.504043e-06 3.8426373e-05 0.0002053992 -0.00013470293 -1.5576714e-05 2.609818e-05 -3.545479e-05 -0.00023846507
2.6897604e-05 -0.00015264716 0.0014843197 -7.5840195e-05 -4.571262e-05 7.95104e-05 3.7372873e-05 -2.4133298e-05
7.949767e-05 1.0304361e-05 6.7393805e-05 1.8717448e-05 9.051757e-05 0.00015356371 7.324816e-05 2.7731612e-05

lstm.bias_ih_l0 f4 [128]
00000000: 9d0a bd3d 6b64 aebb 2959 c4bb 7873 d83d
00000010: a35e 8ebb 532d 06bc 41e6 6ebb 87be 1abb
00000020: fd3f b2bb 8406 fdbb 38c4 543e 136e 043e
00000030: 01bb 00bc b1f0 babb 4a22 f8bb a337 0b3f
00000040: 76a3 00bc b401 5e3f 3a23 3b3f 2070 12bb
00000050: 204f 2ebb ed97 1ebb 1ba7 8abb f91e c2bb
00000060: c148 29bb f0f1 d2bb ba84 4abb 023a 6bbb
00000070: 48a1 e63e 65fe 35bc cd6c 17bb 097d 5bbb
00000080: cd01 2fbe 3fd3 9abb e0d1 a4bb b67a a3bd
00000090: 0c54 5bbb b50e f3bb 639a 4cbb c8d9 f4ba
000000a0: 3d17 93bb 332e dcbb 82ec 64be 697f 53be
000000b0: 902b e5bb 6f0e a5bb 5f5a d7bb 20ae 1cbf
000000c0: 26f7 e5bb e9b5 95be da01 8a3e bb4f deba
000000d0: 800c 0ebb 3749 f2ba 3829 5fbb 4511 aebb
000000e0: 55ea ffba 2f8d b2bb 01ba 1cbb 9468 49bb
000000f0: cad1 7abd dae4 573e cfe5 e9ba ac9a 39bb
00000100: 3412 393f b433 b5b9 c0fb de3a c0fe a43d
00000110: fad5 c13b 7193 ceba 8f1e 12b9 350e f139
00000120: 157b 6ebb d030 3339 c6ae bc3c 4fb0 8bbe
00000130: 6b72 7f3b 4f23 0b3b fd84 c13a 71f3 01bf
00000140: 5806 a9ba 8eec fd3e f7f1 a8bb 91c4 ea39
00000150: 3e56 6c3b 3fab 883a 9024 ef3a 2f01 cb3b
00000160: c99f 81ba e7ad adbb 75a7 ef3a 0597 9d39
00000170: 0889 ebbd 1103 073d a488 8b39 a96f 2c3a
00000180: 8a1f fb3e 6e71 aebb ce64 c4bb 6310 de3d
00000190: cb68 8ebb 1b35 06bc 1cfc 6ebb 20d0 1abb
000001a0: a24a b2bb 2b18 fdbb 64cc 7ebd a6f8 6bbd
000001b0: d5c4 00bc a0ff babb b832 f8bb c893 9a3e
000001c0: a8ac 00bc fdad ed3e 4324 6e3e c47f 12bb
000001d0: 5d62 2ebb 49a6 1ebb 20af 8abb fe2c c2bb
000001e0: 0357 29bb 0cff d2bb 7292 4abb 564f 6bbb
000001f0: d0fb cd3e 2564 ce3d 707c 17bb f391 5bbb
0.0923054 -0.0053220293 -0.005992074 0.10568899 -0.0043447777 -0.008189517 -0.003645316 -0.0023612098
-0.005439757 -0.007721724 0.20777977 0.12932615 -0.007857085 -0.005704962 -0.007572447 0.5438177
-0.007851472 0.8672135 0.73100626 -0.0022344664 -0.0026597455 -0.0024199442 -0.0042313463 -0.0059241024
-0.0025830718 -0.0064375326 -0.0030901865 -0.003589273 0.45044923 -0.011108016 -0.0023105622 -0.0033491275
-0.1709053 -0.0047248895 -0.005029902 -0.0798239 -0.0033466844 -0.0074175247 -0.0031219951 -0.0018680627
-0.004488854 -0.0067193746 -0.22355846 -0.20654072 -0.0069937184 -0.005037121 -0.0065720524 -0.61203194
-0.007017988 -0.2924035 0.26954538 -0.0016961017 -0.002167493 -0.0018484954 -0.0034051668 -0.0053121173
-0.0019524792 -0.0054489593 -0.0023914578 -0.00307325 -0.061235227 0.21083394 -0.0017844978 -0.0028320951
0.722934 -0.00034561532 0.0017012283 0.08056402 0.0059154006 -0.0015760494 -0.00013935029 0.00045977687
-0.003638928 0.00017088954 0.023032557 -0.2728295 0.003897811 0.0021230762 0.0014764365 -0.5076209
-0.0012895567 0.4959454 -0.0051557976 0.0004477841 0.0036062147 0.0010427012 0.0018245149 0.0061952095
-0.0009889539 -0.005300272 0.0018284159 0.00030057892 -0.11500746 0.03296191 0.0002661395 0.0006577918
0.490475 -0.0053235805 -0.005993462 0.10842969 -0.0043459884 -0.008191372 -0.0036466187 -0.0023622587
-0.005441026 -0.0077238283 -0.06220664 -0.057610177 -0.007859428 -0.0057067424 -0.0075744055 0.30190873
-0.007853664 0.46421805 0.2325602 -0.0022353986 -0.0026608922 -0.0024208 -0.0042323023 -0.0059257736
-0.0025839217 -0.0064390954 -0.0030910042 -0.0035905442 0.4023118 0.10077695 -0.0023114942 -0.003350374

lstm.bias_hh_l0 f4 [128]
00000000: dcd1 263e 6b64 aebb 2959 c4bb fd72 d83d
00000010: a35e 8ebb 532d 06bc 41e6 6ebb 87be 1abb
00000020: fd3f b2bb 8406 fdbb 6c81 5c3e 8831 d63d
00000030: 01bb 00bc b1f0 babb 4a22 f8bb 474c 0c3f
00000040: 76a3 00bc a3bf 4a3f 7819 3e3f 2070 12bb
00000050: 204f 2ebb ed97 1ebb 1ba7 8abb f91e c2bb
00000060: c148 29bb f0f1 d2bb ba84 4abb 023a 6bbb
00000070: f1d3 c13e e522 853d cd6c 17bb 097d 5bbb
00000080: d405 ccbd 3fd3 9abb e0d1 a4bb b67a a3bd
00000090: 0c54 5bbb b50e f3bb 639a 4cbb c8d9 f4ba
000000a0: 3d17 93bb 332e dcbb 8f96 66be a5f8 6ebe
000000b0: 902b e5bb 6f0e a5bb 5f5a d7bb 19b6 1abf
000000c0: 26f7 e5bb 3e81 c9bd 5178 5b3e bb4f deba
000000d0: 800c 0ebb 3749 f2ba 3829 5fbb 4511 aebb
000000e0: 55ea ffba 2f8d b2bb 01ba 1cbb 9468 49bb
000000f0: e924 61bd c84c 0f3e cfe5 e9ba ac9a 39bb
00000100: c9b4 5d3f c01c b83a d6e9 103b caa9 253e
00000110: f0f2 b6ba 3443 623b 6ea2 5439 5df5 eeba
00000120: a163 84b9 6cc2 84bb e702 d8bc 3f11 06bd
00000130: 224b 94ba c860 56ba 57cb 0f3b 70af 9fbe
00000140: 8bd2 d1ba 41ac a03e 3d9e ddbc b5a5 2abb
00000150: f250 95bb d4a6 c03a b625 f03a 3b23 f1bb
00000160: 1034 753b d668 ba3a 9832 a73a 1488 59b8
00000170: 5e9a 91be 3210 713d 8913 f83a cd03 6eb9
00000180: 3599 e13e 6e71 aebb ce64 c4bb 4210 de3d
00000190: cb68 8ebb 1b35 06bc 1cfc 6ebb 20d0 1abb
000001a0: a24a b2bb 2b18 fdbb dce1 d2bd dc34 dd3c
000001b0: d5c4 00bc a0ff babb b832 f8bb f647 aa3e
000001c0: a8ac 00bc 1794 053f 7e6d 853e c47f 12bb
000001d0: 5d62 2ebb 49a6 1ebb 20af 8abb fe2c c2bb
000001e0: 0357 29bb 0cff d2bb 7292 4abb 564f 6bbb
000001f0: 4120 c83e 6d8a 783e 707c 17bb f391 5bbb
0.16290992 -0.0053220293 -0.005992074 0.10568807 -0.0043447777 -0.008189517 -0.003645316 -0.0023612098
-0.005439757 -0.007721724 0.21533746 0.10458666 -0.007857085 -0.005704962 -0.007572447 0.5480389
-0.007851472 0.79198664 0.7425761 -0.0022344664 -0.0026597455 -0.0024199442 -0.0042313463 -0.0059241024
-0.0025830718 -0.0064375326 -0.0030901865 -0.003589273 0.3785701 0.06500796 -0.0023105622 -0.0033491275
-0.09962049 -0.0047248895 -0.005029902 -0.0798239 -0.0033466844 -0.0074175247 -0.0031219951 -0.0018680627
-0.004488854 -0.0067193746 -0.22518371 -0.23337038 -0.0069937184 -0.005037121 -0.0065720524 -0.6043411
-0.007017988 -0.09839104 0.21432616 -0.0016961017 -0.002167493 -0.0018484954 -0.0034051668 -0.0053121173
-0.0019524792 -0.0054489593 -0.0023914578 -0.00307325 -0.05496684 0.13994133 -0.0017844978 -0.0028320951
0.8660398 0.0014046654 0.0022112033 0.1617805 -0.0013957899 0.003452492 0.00020278405 -0.0018231083
-0.0002525123 -0.004051497 -0.026368571 -0.03273129 -0.0011313895 -0.00081778737 0.0021941268 -0.31188536
-0.0016008181 0.3138142 -0.027052993 -0.002603871 -0.0045567686 0.0014698156 0.0018321786 -0.007358936
0.0037415065 0.0014221917 0.0012756167 -5.1863564e-05 -0.28438085 0.058853336 0.001892672 -0.00022698865
0.440622 -0.0053235805 -0.005993462 0.10842945 -0.0043459884 -0.008191372 -0.0036466187 -0.0023622587
-0.005441026 -0.0077238283 -0.102969855 0.027002744 -0.007859428 -0.0057067424 -0.0075744055 0.33258027
-0.007853664 0.5217909 0.26060098 -0.0022353986 -0.0026608922 -0.0024208 -0.0042323023 -0.0059257736
-0.0025839217 -0.0064390954 -0.0030910042 -0.0035905442 0.39087108 0.24271555 -0.0023114942 -0.003350374

linear.weight f4 [3, 32]
00000000: 215c 453e 30d4 17ba 5b23 21bb d941 873d
00000010: 440d 3bbb 1f2c c6ba a909 d338 8df2 7d3a
00000020: bd8f 2a3b 659d 193b 3193 11be 7850 d63e
00000030: 040f dfba 09e7 4dba 661b 1cbb 4394 a93e
00000040: fea1 e93a 887c abbe c850 6abf 7f8c c23a
00000050: b186 403a 584c e9ba cd2a 1cbb eb57 5a3a
00000060: 7f7d f8ba 7d49 233b ff4e 0ebb e7d9 9bb9
00000070: 5e36 31be bd9c fabe 10c8 c1ba 55bc eab9
00000080: e301 c03e 2501 2fba c141 b93a 53e0 bdbd
00000090: 291a b23a 5dea 803a f6d4 92ba 95be c5ba
000000a0: 52a3 c0ba 91f9 60ba 2de5 8cbe 2735 063f
000000b0: 4c2e 2b39 0956 2bba 2ace 803a 1cf9 d13e
000000c0: 4644 c6b9 97d4 d2be a891 59bf 2fd8 d5ba
000000d0: f75b b0ba 6785 d73a f785 d23a 1196 d139
000000e0: 01d9 db3a f8a4 b2ba f27e d13a 269a 963a
000000f0: 6817 53be 2c6a e33d 3de9 cd3a 0668 a13a
00000100: f239 d83e 0e71 1339 26df b3ba 0474 0e3b
00000110: 3c8d ddba 0d68 3cba 2eff 043a 1545 7b3a
00000120: 67e5 be3a 569a 9b3a 6019 16bf f255 0b3f
00000130: 9971 33ba d576 00b8 c6dc 9cba 5416 ce3e
00000140: 00ef 4a3a 9e32 f5be 8753 47bf acaf 993a
00000150: cdc9 5b3a 1f12 b0ba 49d8 b8ba 3881 1638
00000160: ac0a a9ba 1da2 b13a d2db b0ba 202b 29ba
00000170: bf6e a8be 7fce 143f b3c2 a2ba 9dd5 3eba
0.19273426 -0.0005791811 -0.0024587724 0.06604356 -0.0028541842 -0.001511935 0.000100630634 0.0009687327
0.0026025616 0.0023439762 -0.14216305 0.41858268 -0.0017018025 -0.00078545563 -0.0023820042 0.33120927
0.0017824767 -0.33493447 -0.9152951 0.0014842896 0.00073442893 -0.0017799241 -0.0023829222 0.0008329141
-0.0018958299 0.0024915629 -0.0021714566 -0.00029726254 -0.17305896 -0.48947707 -0.0014784355 -0.00044772276
0.3750144 -0.0006675891 0.0014133976 -0.09271302 0.0013588119 0.0009835471 -0.0011202383 -0.0015086705
-0.0014697111 -0.000858211 -0.27518597 0.52424854 0.00016325078 -0.00065359526 0.0009827067 0.41010368
-0.0003781637 -0.41177818 -0.8498788 -0.0016315038 -0.0013455142 0.0016442955 0.0016061653 0.00039975395
0.0016773046 -0.0013629487 0.0015983267 0.0011490032 -0.20614398 0.11104235 0.0015709769 0.0012314327
0.4223171 0.00014061129 -0.001372312 0.0021736631 -0.0016903053 -0.00071871356 0.0005073425 0.0009585184
0.0014564217 0.0011871557 -0.5863247 0.5442802 -0.00068452355 -3.062825e-05 -0.0011967651 0.4025141
0.0007741302 -0.4789018 -0.7786183 0.0011725328 0.00083842577 -0.0013433135 -0.0014102544 3.588313e-05
-0.0012896857 0.0013552342 -0.0013493246 -0.00064532645 -0.32896993 0.5812759 -0.0012417644 -0.00072797557
